node {
  name: "inputnode"
  op: "Placeholder"
  attr {
    key: "dtype"
    value {
      type: DT_FLOAT
    }
  }
  attr {
    key: "shape"
    value {
      shape {
        dim {
          size: 1
        }
        dim {
          size: 10
        }
        dim {
          size: 10000
        }
      }
    }
  }
}
node {
  name: "Const"
  op: "Const"
  attr {
    key: "dtype"
    value {
      type: DT_FLOAT
    }
  }
  attr {
    key: "value"
    value {
      tensor {
        dtype: DT_FLOAT
        tensor_shape {
          dim {
            size: 1
          }
          dim {
            size: 100
          }
          dim {
            size: 100
          }
          dim {
            size: 12
          }
        }
        tensor_content: "…"
      }
    }
  }
}
node {
  name: "rnn/InputHint-TfLiteDynamicRnn-1071b489780211ea955e901b0e08b606-0-None-input"
  op: "Identity"
  input: "inputnode"
  attr {
    key: "T"
    value {
      type: DT_FLOAT
    }
  }
  attr {
    key: "_tflite_children_ophint_inputs_mapping"
    value {
      s: "{\"parent_first_child_input\": [{\"parent_ophint_input_index\": 0, \"first_child_ophint_input_index\": 0}], \"parent_last_child_output\": [{\"parent_output_index\": 0, \"child_output_index\": -1}], \"internal_children_input_output\": [{\"child_input_index\": 0, \"child_output_index\": -1}]}"
    }
  }
  attr {
    key: "_tflite_function_input_index"
    value {
      i: 0
    }
  }
  attr {
    key: "_tflite_function_name"
    value {
      s: "TfLiteDynamicRnn"
    }
  }
  attr {
    key: "_tflite_function_uuid"
    value {
      s: "1071b489780211ea955e901b0e08b606"
    }
  }
  attr {
    key: "_tflite_ophint_level"
    value {
      i: 2
    }
  }
}
node {
  name: "rnn/ConvLSTMCell_liteZeroState/Const"
  op: "Const"
  attr {
    key: "dtype"
    value {
      type: DT_INT32
    }
  }
  attr {
    key: "value"
    value {
      tensor {
        dtype: DT_INT32
        tensor_shape {
          dim {
            size: 1
          }
        }
        int_val: 10
      }
    }
  }
}
node {
  name: "rnn/ConvLSTMCell_liteZeroState/Const_1"
  op: "Const"
  attr {
    key: "dtype"
    value {
      type: DT_INT32
    }
  }
  attr {
    key: "value"
    value {
      tensor {
        dtype: DT_INT32
        tensor_shape {
          dim {
            size: 3
          }
        }
        tensor_content: "d\000\000\000d\000\000\000\014\000\000\000"
      }
    }
  }
}
node {
  name: "rnn/ConvLSTMCell_liteZeroState/concat/axis"
  op: "Const"
  attr {
    key: "dtype"
    value {
      type: DT_INT32
    }
  }
  attr {
    key: "value"
    value {
      tensor {
        dtype: DT_INT32
        tensor_shape {
        }
        int_val: 0
      }
    }
  }
}
node {
  name: "rnn/ConvLSTMCell_liteZeroState/concat"
  op: "ConcatV2"
  input: "rnn/ConvLSTMCell_liteZeroState/Const"
  input: "rnn/ConvLSTMCell_liteZeroState/Const_1"
  input: "rnn/ConvLSTMCell_liteZeroState/concat/axis"
  attr {
    key: "N"
    value {
      i: 2
    }
  }
  attr {
    key: "T"
    value {
      type: DT_INT32
    }
  }
  attr {
    key: "Tidx"
    value {
      type: DT_INT32
    }
  }
}
node {
  name: "rnn/ConvLSTMCell_liteZeroState/zeros/Const"
  op: "Const"
  attr {
    key: "dtype"
    value {
      type: DT_FLOAT
    }
  }
  attr {
    key: "value"
    value {
      tensor {
        dtype: DT_FLOAT
        tensor_shape {
        }
        float_val: 0.0
      }
    }
  }
}
node {
  name: "rnn/ConvLSTMCell_liteZeroState/zeros"
  op: "Fill"
  input: "rnn/ConvLSTMCell_liteZeroState/concat"
  input: "rnn/ConvLSTMCell_liteZeroState/zeros/Const"
  attr {
    key: "T"
    value {
      type: DT_FLOAT
    }
  }
  attr {
    key: "index_type"
    value {
      type: DT_INT32
    }
  }
}
node {
  name: "rnn/ConvLSTMCell_liteZeroState/Const_2"
  op: "Const"
  attr {
    key: "dtype"
    value {
      type: DT_INT32
    }
  }
  attr {
    key: "value"
    value {
      tensor {
        dtype: DT_INT32
        tensor_shape {
          dim {
            size: 1
          }
        }
        int_val: 10
      }
    }
  }
}
node {
  name: "rnn/ConvLSTMCell_liteZeroState/Const_3"
  op: "Const"
  attr {
    key: "dtype"
    value {
      type: DT_INT32
    }
  }
  attr {
    key: "value"
    value {
      tensor {
        dtype: DT_INT32
        tensor_shape {
          dim {
            size: 3
          }
        }
        tensor_content: "d\000\000\000d\000\000\000\014\000\000\000"
      }
    }
  }
}
node {
  name: "rnn/ConvLSTMCell_liteZeroState/Const_4"
  op: "Const"
  attr {
    key: "dtype"
    value {
      type: DT_INT32
    }
  }
  attr {
    key: "value"
    value {
      tensor {
        dtype: DT_INT32
        tensor_shape {
          dim {
            size: 1
          }
        }
        int_val: 10
      }
    }
  }
}
node {
  name: "rnn/ConvLSTMCell_liteZeroState/Const_5"
  op: "Const"
  attr {
    key: "dtype"
    value {
      type: DT_INT32
    }
  }
  attr {
    key: "value"
    value {
      tensor {
        dtype: DT_INT32
        tensor_shape {
          dim {
            size: 3
          }
        }
        tensor_content: "d\000\000\000d\000\000\000\014\000\000\000"
      }
    }
  }
}
node {
  name: "rnn/ConvLSTMCell_liteZeroState/concat_1/axis"
  op: "Const"
  attr {
    key: "dtype"
    value {
      type: DT_INT32
    }
  }
  attr {
    key: "value"
    value {
      tensor {
        dtype: DT_INT32
        tensor_shape {
        }
        int_val: 0
      }
    }
  }
}
node {
  name: "rnn/ConvLSTMCell_liteZeroState/concat_1"
  op: "ConcatV2"
  input: "rnn/ConvLSTMCell_liteZeroState/Const_4"
  input: "rnn/ConvLSTMCell_liteZeroState/Const_5"
  input: "rnn/ConvLSTMCell_liteZeroState/concat_1/axis"
  attr {
    key: "N"
    value {
      i: 2
    }
  }
  attr {
    key: "T"
    value {
      type: DT_INT32
    }
  }
  attr {
    key: "Tidx"
    value {
      type: DT_INT32
    }
  }
}
node {
  name: "rnn/ConvLSTMCell_liteZeroState/zeros_1/Const"
  op: "Const"
  attr {
    key: "dtype"
    value {
      type: DT_FLOAT
    }
  }
  attr {
    key: "value"
    value {
      tensor {
        dtype: DT_FLOAT
        tensor_shape {
        }
        float_val: 0.0
      }
    }
  }
}
node {
  name: "rnn/ConvLSTMCell_liteZeroState/zeros_1"
  op: "Fill"
  input: "rnn/ConvLSTMCell_liteZeroState/concat_1"
  input: "rnn/ConvLSTMCell_liteZeroState/zeros_1/Const"
  attr {
    key: "T"
    value {
      type: DT_FLOAT
    }
  }
  attr {
    key: "index_type"
    value {
      type: DT_INT32
    }
  }
}
node {
  name: "rnn/ConvLSTMCell_liteZeroState/Const_6"
  op: "Const"
  attr {
    key: "dtype"
    value {
      type: DT_INT32
    }
  }
  attr {
    key: "value"
    value {
      tensor {
        dtype: DT_INT32
        tensor_shape {
          dim {
            size: 1
          }
        }
        int_val: 10
      }
    }
  }
}
node {
  name: "rnn/ConvLSTMCell_liteZeroState/Const_7"
  op: "Const"
  attr {
    key: "dtype"
    value {
      type: DT_INT32
    }
  }
  attr {
    key: "value"
    value {
      tensor {
        dtype: DT_INT32
        tensor_shape {
          dim {
            size: 3
          }
        }
        tensor_content: "d\000\000\000d\000\000\000\014\000\000\000"
      }
    }
  }
}
node {
  name: "rnn/Shape"
  op: "Const"
  attr {
    key: "dtype"
    value {
      type: DT_INT32
    }
  }
  attr {
    key: "value"
    value {
      tensor {
        dtype: DT_INT32
        tensor_shape {
          dim {
            size: 3
          }
        }
        tensor_content: "\001\000\000\000\n\000\000\000\020\'\000\000"
      }
    }
  }
}
node {
  name: "rnn/strided_slice/stack"
  op: "Const"
  attr {
    key: "dtype"
    value {
      type: DT_INT32
    }
  }
  attr {
    key: "value"
    value {
      tensor {
        dtype: DT_INT32
        tensor_shape {
          dim {
            size: 1
          }
        }
        int_val: 0
      }
    }
  }
}
node {
  name: "rnn/strided_slice/stack_1"
  op: "Const"
  attr {
    key: "dtype"
    value {
      type: DT_INT32
    }
  }
  attr {
    key: "value"
    value {
      tensor {
        dtype: DT_INT32
        tensor_shape {
          dim {
            size: 1
          }
        }
        int_val: 1
      }
    }
  }
}
node {
  name: "rnn/strided_slice/stack_2"
  op: "Const"
  attr {
    key: "dtype"
    value {
      type: DT_INT32
    }
  }
  attr {
    key: "value"
    value {
      tensor {
        dtype: DT_INT32
        tensor_shape {
          dim {
            size: 1
          }
        }
        int_val: 1
      }
    }
  }
}
node {
  name: "rnn/strided_slice"
  op: "StridedSlice"
  input: "rnn/Shape"
  input: "rnn/strided_slice/stack"
  input: "rnn/strided_slice/stack_1"
  input: "rnn/strided_slice/stack_2"
  attr {
    key: "Index"
    value {
      type: DT_INT32
    }
  }
  attr {
    key: "T"
    value {
      type: DT_INT32
    }
  }
  attr {
    key: "begin_mask"
    value {
      i: 0
    }
  }
  attr {
    key: "ellipsis_mask"
    value {
      i: 0
    }
  }
  attr {
    key: "end_mask"
    value {
      i: 0
    }
  }
  attr {
    key: "new_axis_mask"
    value {
      i: 0
    }
  }
  attr {
    key: "shrink_axis_mask"
    value {
      i: 1
    }
  }
}
node {
  name: "rnn/Const"
  op: "Const"
  attr {
    key: "dtype"
    value {
      type: DT_INT32
    }
  }
  attr {
    key: "value"
    value {
      tensor {
        dtype: DT_INT32
        tensor_shape {
          dim {
            size: 1
          }
        }
        int_val: 10
      }
    }
  }
}
node {
  name: "rnn/Const_1"
  op: "Const"
  attr {
    key: "dtype"
    value {
      type: DT_INT32
    }
  }
  attr {
    key: "value"
    value {
      tensor {
        dtype: DT_INT32
        tensor_shape {
          dim {
            size: 3
          }
        }
        tensor_content: "d\000\000\000d\000\000\000\014\000\000\000"
      }
    }
  }
}
node {
  name: "rnn/concat/axis"
  op: "Const"
  attr {
    key: "dtype"
    value {
      type: DT_INT32
    }
  }
  attr {
    key: "value"
    value {
      tensor {
        dtype: DT_INT32
        tensor_shape {
        }
        int_val: 0
      }
    }
  }
}
node {
  name: "rnn/concat"
  op: "ConcatV2"
  input: "rnn/Const"
  input: "rnn/Const_1"
  input: "rnn/concat/axis"
  attr {
    key: "N"
    value {
      i: 2
    }
  }
  attr {
    key: "T"
    value {
      type: DT_INT32
    }
  }
  attr {
    key: "Tidx"
    value {
      type: DT_INT32
    }
  }
}
node {
  name: "rnn/zeros/Const"
  op: "Const"
  attr {
    key: "dtype"
    value {
      type: DT_FLOAT
    }
  }
  attr {
    key: "value"
    value {
      tensor {
        dtype: DT_FLOAT
        tensor_shape {
        }
        float_val: 0.0
      }
    }
  }
}
node {
  name: "rnn/zeros"
  op: "Fill"
  input: "rnn/concat"
  input: "rnn/zeros/Const"
  attr {
    key: "T"
    value {
      type: DT_FLOAT
    }
  }
  attr {
    key: "index_type"
    value {
      type: DT_INT32
    }
  }
}
node {
  name: "rnn/time"
  op: "Const"
  attr {
    key: "dtype"
    value {
      type: DT_INT32
    }
  }
  attr {
    key: "value"
    value {
      tensor {
        dtype: DT_INT32
        tensor_shape {
        }
        int_val: 0
      }
    }
  }
}
node {
  name: "rnn/TensorArrayV2/element_shape"
  op: "Const"
  attr {
    key: "dtype"
    value {
      type: DT_INT32
    }
  }
  attr {
    key: "value"
    value {
      tensor {
        dtype: DT_INT32
        tensor_shape {
          dim {
            size: 4
          }
        }
        tensor_content: "\n\000\000\000d\000\000\000d\000\000\000\014\000\000\000"
      }
    }
  }
}
node {
  name: "rnn/TensorArrayV2"
  op: "TensorListReserve"
  input: "rnn/TensorArrayV2/element_shape"
  input: "rnn/strided_slice"
  attr {
    key: "element_dtype"
    value {
      type: DT_FLOAT
    }
  }
  attr {
    key: "shape_type"
    value {
      type: DT_INT32
    }
  }
}
node {
  name: "rnn/TensorArrayV2_1/element_shape"
  op: "Const"
  attr {
    key: "dtype"
    value {
      type: DT_INT32
    }
  }
  attr {
    key: "value"
    value {
      tensor {
        dtype: DT_INT32
        tensor_shape {
          dim {
            size: 2
          }
        }
        tensor_content: "\n\000\000\000\020\'\000\000"
      }
    }
  }
}
node {
  name: "rnn/TensorArrayV2_1"
  op: "TensorListReserve"
  input: "rnn/TensorArrayV2_1/element_shape"
  input: "rnn/strided_slice"
  attr {
    key: "element_dtype"
    value {
      type: DT_FLOAT
    }
  }
  attr {
    key: "shape_type"
    value {
      type: DT_INT32
    }
  }
}
node {
  name: "rnn/TensorArrayUnstack/TensorListFromTensor/element_shape"
  op: "Const"
  attr {
    key: "dtype"
    value {
      type: DT_INT32
    }
  }
  attr {
    key: "value"
    value {
      tensor {
        dtype: DT_INT32
        tensor_shape {
          dim {
            size: 2
          }
        }
        tensor_content: "\n\000\000\000\020\'\000\000"
      }
    }
  }
}
node {
  name: "rnn/TensorArrayUnstack/TensorListFromTensor"
  op: "TensorListFromTensor"
  input: "rnn/InputHint-TfLiteDynamicRnn-1071b489780211ea955e901b0e08b606-0-None-input"
  input: "rnn/TensorArrayUnstack/TensorListFromTensor/element_shape"
  attr {
    key: "element_dtype"
    value {
      type: DT_FLOAT
    }
  }
  attr {
    key: "shape_type"
    value {
      type: DT_INT32
    }
  }
}
node {
  name: "rnn/Maximum/x"
  op: "Const"
  attr {
    key: "dtype"
    value {
      type: DT_INT32
    }
  }
  attr {
    key: "value"
    value {
      tensor {
        dtype: DT_INT32
        tensor_shape {
        }
        int_val: 1
      }
    }
  }
}
node {
  name: "rnn/Maximum"
  op: "Maximum"
  input: "rnn/Maximum/x"
  input: "rnn/strided_slice"
  attr {
    key: "T"
    value {
      type: DT_INT32
    }
  }
}
node {
  name: "rnn/Minimum"
  op: "Minimum"
  input: "rnn/strided_slice"
  input: "rnn/Maximum"
  attr {
    key: "T"
    value {
      type: DT_INT32
    }
  }
}
node {
  name: "rnn/while/loop_counter"
  op: "Const"
  attr {
    key: "dtype"
    value {
      type: DT_INT32
    }
  }
  attr {
    key: "value"
    value {
      tensor {
        dtype: DT_INT32
        tensor_shape {
        }
        int_val: 0
      }
    }
  }
}
node {
  name: "rnn/conv_lstm_cell_lite/input_to_input_w/Initializer/random_uniform/shape"
  op: "Const"
  attr {
    key: "_class"
    value {
      list {
        s: "loc:@rnn/conv_lstm_cell_lite/input_to_input_w"
      }
    }
  }
  attr {
    key: "dtype"
    value {
      type: DT_INT32
    }
  }
  attr {
    key: "value"
    value {
      tensor {
        dtype: DT_INT32
        tensor_shape {
          dim {
            size: 2
          }
        }
        tensor_content: "\001\000\000\000\020\'\000\000"
      }
    }
  }
}
node {
  name: "rnn/conv_lstm_cell_lite/input_to_input_w/Initializer/random_uniform/min"
  op: "Const"
  attr {
    key: "_class"
    value {
      list {
        s: "loc:@rnn/conv_lstm_cell_lite/input_to_input_w"
      }
    }
  }
  attr {
    key: "dtype"
    value {
      type: DT_FLOAT
    }
  }
  attr {
    key: "value"
    value {
      tensor {
        dtype: DT_FLOAT
        tensor_shape {
        }
        float_val: -0.02449367195367813
      }
    }
  }
}
node {
  name: "rnn/conv_lstm_cell_lite/input_to_input_w/Initializer/random_uniform/max"
  op: "Const"
  attr {
    key: "_class"
    value {
      list {
        s: "loc:@rnn/conv_lstm_cell_lite/input_to_input_w"
      }
    }
  }
  attr {
    key: "dtype"
    value {
      type: DT_FLOAT
    }
  }
  attr {
    key: "value"
    value {
      tensor {
        dtype: DT_FLOAT
        tensor_shape {
        }
        float_val: 0.02449367195367813
      }
    }
  }
}
node {
  name: "rnn/conv_lstm_cell_lite/input_to_input_w/Initializer/random_uniform/RandomUniform"
  op: "RandomUniform"
  input: "rnn/conv_lstm_cell_lite/input_to_input_w/Initializer/random_uniform/shape"
  attr {
    key: "T"
    value {
      type: DT_INT32
    }
  }
  attr {
    key: "_class"
    value {
      list {
        s: "loc:@rnn/conv_lstm_cell_lite/input_to_input_w"
      }
    }
  }
  attr {
    key: "dtype"
    value {
      type: DT_FLOAT
    }
  }
  attr {
    key: "seed"
    value {
      i: 0
    }
  }
  attr {
    key: "seed2"
    value {
      i: 0
    }
  }
}
node {
  name: "rnn/conv_lstm_cell_lite/input_to_input_w/Initializer/random_uniform/sub"
  op: "Sub"
  input: "rnn/conv_lstm_cell_lite/input_to_input_w/Initializer/random_uniform/max"
  input: "rnn/conv_lstm_cell_lite/input_to_input_w/Initializer/random_uniform/min"
  attr {
    key: "T"
    value {
      type: DT_FLOAT
    }
  }
  attr {
    key: "_class"
    value {
      list {
        s: "loc:@rnn/conv_lstm_cell_lite/input_to_input_w"
      }
    }
  }
}
node {
  name: "rnn/conv_lstm_cell_lite/input_to_input_w/Initializer/random_uniform/mul"
  op: "Mul"
  input: "rnn/conv_lstm_cell_lite/input_to_input_w/Initializer/random_uniform/RandomUniform"
  input: "rnn/conv_lstm_cell_lite/input_to_input_w/Initializer/random_uniform/sub"
  attr {
    key: "T"
    value {
      type: DT_FLOAT
    }
  }
  attr {
    key: "_class"
    value {
      list {
        s: "loc:@rnn/conv_lstm_cell_lite/input_to_input_w"
      }
    }
  }
}
node {
  name: "rnn/conv_lstm_cell_lite/input_to_input_w/Initializer/random_uniform"
  op: "Add"
  input: "rnn/conv_lstm_cell_lite/input_to_input_w/Initializer/random_uniform/mul"
  input: "rnn/conv_lstm_cell_lite/input_to_input_w/Initializer/random_uniform/min"
  attr {
    key: "T"
    value {
      type: DT_FLOAT
    }
  }
  attr {
    key: "_class"
    value {
      list {
        s: "loc:@rnn/conv_lstm_cell_lite/input_to_input_w"
      }
    }
  }
}
node {
  name: "rnn/conv_lstm_cell_lite/input_to_input_w"
  op: "VarHandleOp"
  attr {
    key: "_class"
    value {
      list {
        s: "loc:@rnn/conv_lstm_cell_lite/input_to_input_w"
      }
    }
  }
  attr {
    key: "container"
    value {
      s: ""
    }
  }
  attr {
    key: "dtype"
    value {
      type: DT_FLOAT
    }
  }
  attr {
    key: "shape"
    value {
      shape {
        dim {
          size: 1
        }
        dim {
          size: 10000
        }
      }
    }
  }
  attr {
    key: "shared_name"
    value {
      s: "rnn/conv_lstm_cell_lite/input_to_input_w"
    }
  }
}
node {
  name: "rnn/conv_lstm_cell_lite/input_to_input_w/IsInitialized/VarIsInitializedOp"
  op: "VarIsInitializedOp"
  input: "rnn/conv_lstm_cell_lite/input_to_input_w"
}
node {
  name: "rnn/conv_lstm_cell_lite/input_to_input_w/Assign"
  op: "AssignVariableOp"
  input: "rnn/conv_lstm_cell_lite/input_to_input_w"
  input: "rnn/conv_lstm_cell_lite/input_to_input_w/Initializer/random_uniform"
  attr {
    key: "dtype"
    value {
      type: DT_FLOAT
    }
  }
}
node {
  name: "rnn/conv_lstm_cell_lite/input_to_input_w/Read/ReadVariableOp"
  op: "ReadVariableOp"
  input: "rnn/conv_lstm_cell_lite/input_to_input_w"
  attr {
    key: "dtype"
    value {
      type: DT_FLOAT
    }
  }
}
node {
  name: "rnn/conv_lstm_cell_lite/input_to_input_w/Read/Identity"
  op: "Identity"
  input: "rnn/conv_lstm_cell_lite/input_to_input_w/Read/ReadVariableOp"
  attr {
    key: "T"
    value {
      type: DT_FLOAT
    }
  }
}
node {
  name: "rnn/conv_lstm_cell_lite/input_to_forget_w/Initializer/random_uniform/shape"
  op: "Const"
  attr {
    key: "_class"
    value {
      list {
        s: "loc:@rnn/conv_lstm_cell_lite/input_to_forget_w"
      }
    }
  }
  attr {
    key: "dtype"
    value {
      type: DT_INT32
    }
  }
  attr {
    key: "value"
    value {
      tensor {
        dtype: DT_INT32
        tensor_shape {
          dim {
            size: 2
          }
        }
        tensor_content: "\001\000\000\000\020\'\000\000"
      }
    }
  }
}
node {
  name: "rnn/conv_lstm_cell_lite/input_to_forget_w/Initializer/random_uniform/min"
  op: "Const"
  attr {
    key: "_class"
    value {
      list {
        s: "loc:@rnn/conv_lstm_cell_lite/input_to_forget_w"
      }
    }
  }
  attr {
    key: "dtype"
    value {
      type: DT_FLOAT
    }
  }
  attr {
    key: "value"
    value {
      tensor {
        dtype: DT_FLOAT
        tensor_shape {
        }
        float_val: -0.02449367195367813
      }
    }
  }
}
node {
  name: "rnn/conv_lstm_cell_lite/input_to_forget_w/Initializer/random_uniform/max"
  op: "Const"
  attr {
    key: "_class"
    value {
      list {
        s: "loc:@rnn/conv_lstm_cell_lite/input_to_forget_w"
      }
    }
  }
  attr {
    key: "dtype"
    value {
      type: DT_FLOAT
    }
  }
  attr {
    key: "value"
    value {
      tensor {
        dtype: DT_FLOAT
        tensor_shape {
        }
        float_val: 0.02449367195367813
      }
    }
  }
}
node {
  name: "rnn/conv_lstm_cell_lite/input_to_forget_w/Initializer/random_uniform/RandomUniform"
  op: "RandomUniform"
  input: "rnn/conv_lstm_cell_lite/input_to_forget_w/Initializer/random_uniform/shape"
  attr {
    key: "T"
    value {
      type: DT_INT32
    }
  }
  attr {
    key: "_class"
    value {
      list {
        s: "loc:@rnn/conv_lstm_cell_lite/input_to_forget_w"
      }
    }
  }
  attr {
    key: "dtype"
    value {
      type: DT_FLOAT
    }
  }
  attr {
    key: "seed"
    value {
      i: 0
    }
  }
  attr {
    key: "seed2"
    value {
      i: 0
    }
  }
}
node {
  name: "rnn/conv_lstm_cell_lite/input_to_forget_w/Initializer/random_uniform/sub"
  op: "Sub"
  input: "rnn/conv_lstm_cell_lite/input_to_forget_w/Initializer/random_uniform/max"
  input: "rnn/conv_lstm_cell_lite/input_to_forget_w/Initializer/random_uniform/min"
  attr {
    key: "T"
    value {
      type: DT_FLOAT
    }
  }
  attr {
    key: "_class"
    value {
      list {
        s: "loc:@rnn/conv_lstm_cell_lite/input_to_forget_w"
      }
    }
  }
}
node {
  name: "rnn/conv_lstm_cell_lite/input_to_forget_w/Initializer/random_uniform/mul"
  op: "Mul"
  input: "rnn/conv_lstm_cell_lite/input_to_forget_w/Initializer/random_uniform/RandomUniform"
  input: "rnn/conv_lstm_cell_lite/input_to_forget_w/Initializer/random_uniform/sub"
  attr {
    key: "T"
    value {
      type: DT_FLOAT
    }
  }
  attr {
    key: "_class"
    value {
      list {
        s: "loc:@rnn/conv_lstm_cell_lite/input_to_forget_w"
      }
    }
  }
}
node {
  name: "rnn/conv_lstm_cell_lite/input_to_forget_w/Initializer/random_uniform"
  op: "Add"
  input: "rnn/conv_lstm_cell_lite/input_to_forget_w/Initializer/random_uniform/mul"
  input: "rnn/conv_lstm_cell_lite/input_to_forget_w/Initializer/random_uniform/min"
  attr {
    key: "T"
    value {
      type: DT_FLOAT
    }
  }
  attr {
    key: "_class"
    value {
      list {
        s: "loc:@rnn/conv_lstm_cell_lite/input_to_forget_w"
      }
    }
  }
}
node {
  name: "rnn/conv_lstm_cell_lite/input_to_forget_w"
  op: "VarHandleOp"
  attr {
    key: "_class"
    value {
      list {
        s: "loc:@rnn/conv_lstm_cell_lite/input_to_forget_w"
      }
    }
  }
  attr {
    key: "container"
    value {
      s: ""
    }
  }
  attr {
    key: "dtype"
    value {
      type: DT_FLOAT
    }
  }
  attr {
    key: "shape"
    value {
      shape {
        dim {
          size: 1
        }
        dim {
          size: 10000
        }
      }
    }
  }
  attr {
    key: "shared_name"
    value {
      s: "rnn/conv_lstm_cell_lite/input_to_forget_w"
    }
  }
}
node {
  name: "rnn/conv_lstm_cell_lite/input_to_forget_w/IsInitialized/VarIsInitializedOp"
  op: "VarIsInitializedOp"
  input: "rnn/conv_lstm_cell_lite/input_to_forget_w"
}
node {
  name: "rnn/conv_lstm_cell_lite/input_to_forget_w/Assign"
  op: "AssignVariableOp"
  input: "rnn/conv_lstm_cell_lite/input_to_forget_w"
  input: "rnn/conv_lstm_cell_lite/input_to_forget_w/Initializer/random_uniform"
  attr {
    key: "dtype"
    value {
      type: DT_FLOAT
    }
  }
}
node {
  name: "rnn/conv_lstm_cell_lite/input_to_forget_w/Read/ReadVariableOp"
  op: "ReadVariableOp"
  input: "rnn/conv_lstm_cell_lite/input_to_forget_w"
  attr {
    key: "dtype"
    value {
      type: DT_FLOAT
    }
  }
}
node {
  name: "rnn/conv_lstm_cell_lite/input_to_forget_w/Read/Identity"
  op: "Identity"
  input: "rnn/conv_lstm_cell_lite/input_to_forget_w/Read/ReadVariableOp"
  attr {
    key: "T"
    value {
      type: DT_FLOAT
    }
  }
}
node {
  name: "rnn/conv_lstm_cell_lite/input_to_cell_w/Initializer/random_uniform/shape"
  op: "Const"
  attr {
    key: "_class"
    value {
      list {
        s: "loc:@rnn/conv_lstm_cell_lite/input_to_cell_w"
      }
    }
  }
  attr {
    key: "dtype"
    value {
      type: DT_INT32
    }
  }
  attr {
    key: "value"
    value {
      tensor {
        dtype: DT_INT32
        tensor_shape {
          dim {
            size: 2
          }
        }
        tensor_content: "\001\000\000\000\020\'\000\000"
      }
    }
  }
}
node {
  name: "rnn/conv_lstm_cell_lite/input_to_cell_w/Initializer/random_uniform/min"
  op: "Const"
  attr {
    key: "_class"
    value {
      list {
        s: "loc:@rnn/conv_lstm_cell_lite/input_to_cell_w"
      }
    }
  }
  attr {
    key: "dtype"
    value {
      type: DT_FLOAT
    }
  }
  attr {
    key: "value"
    value {
      tensor {
        dtype: DT_FLOAT
        tensor_shape {
        }
        float_val: -0.02449367195367813
      }
    }
  }
}
node {
  name: "rnn/conv_lstm_cell_lite/input_to_cell_w/Initializer/random_uniform/max"
  op: "Const"
  attr {
    key: "_class"
    value {
      list {
        s: "loc:@rnn/conv_lstm_cell_lite/input_to_cell_w"
      }
    }
  }
  attr {
    key: "dtype"
    value {
      type: DT_FLOAT
    }
  }
  attr {
    key: "value"
    value {
      tensor {
        dtype: DT_FLOAT
        tensor_shape {
        }
        float_val: 0.02449367195367813
      }
    }
  }
}
node {
  name: "rnn/conv_lstm_cell_lite/input_to_cell_w/Initializer/random_uniform/RandomUniform"
  op: "RandomUniform"
  input: "rnn/conv_lstm_cell_lite/input_to_cell_w/Initializer/random_uniform/shape"
  attr {
    key: "T"
    value {
      type: DT_INT32
    }
  }
  attr {
    key: "_class"
    value {
      list {
        s: "loc:@rnn/conv_lstm_cell_lite/input_to_cell_w"
      }
    }
  }
  attr {
    key: "dtype"
    value {
      type: DT_FLOAT
    }
  }
  attr {
    key: "seed"
    value {
      i: 0
    }
  }
  attr {
    key: "seed2"
    value {
      i: 0
    }
  }
}
node {
  name: "rnn/conv_lstm_cell_lite/input_to_cell_w/Initializer/random_uniform/sub"
  op: "Sub"
  input: "rnn/conv_lstm_cell_lite/input_to_cell_w/Initializer/random_uniform/max"
  input: "rnn/conv_lstm_cell_lite/input_to_cell_w/Initializer/random_uniform/min"
  attr {
    key: "T"
    value {
      type: DT_FLOAT
    }
  }
  attr {
    key: "_class"
    value {
      list {
        s: "loc:@rnn/conv_lstm_cell_lite/input_to_cell_w"
      }
    }
  }
}
node {
  name: "rnn/conv_lstm_cell_lite/input_to_cell_w/Initializer/random_uniform/mul"
  op: "Mul"
  input: "rnn/conv_lstm_cell_lite/input_to_cell_w/Initializer/random_uniform/RandomUniform"
  input: "rnn/conv_lstm_cell_lite/input_to_cell_w/Initializer/random_uniform/sub"
  attr {
    key: "T"
    value {
      type: DT_FLOAT
    }
  }
  attr {
    key: "_class"
    value {
      list {
        s: "loc:@rnn/conv_lstm_cell_lite/input_to_cell_w"
      }
    }
  }
}
node {
  name: "rnn/conv_lstm_cell_lite/input_to_cell_w/Initializer/random_uniform"
  op: "Add"
  input: "rnn/conv_lstm_cell_lite/input_to_cell_w/Initializer/random_uniform/mul"
  input: "rnn/conv_lstm_cell_lite/input_to_cell_w/Initializer/random_uniform/min"
  attr {
    key: "T"
    value {
      type: DT_FLOAT
    }
  }
  attr {
    key: "_class"
    value {
      list {
        s: "loc:@rnn/conv_lstm_cell_lite/input_to_cell_w"
      }
    }
  }
}
node {
  name: "rnn/conv_lstm_cell_lite/input_to_cell_w"
  op: "VarHandleOp"
  attr {
    key: "_class"
    value {
      list {
        s: "loc:@rnn/conv_lstm_cell_lite/input_to_cell_w"
      }
    }
  }
  attr {
    key: "container"
    value {
      s: ""
    }
  }
  attr {
    key: "dtype"
    value {
      type: DT_FLOAT
    }
  }
  attr {
    key: "shape"
    value {
      shape {
        dim {
          size: 1
        }
        dim {
          size: 10000
        }
      }
    }
  }
  attr {
    key: "shared_name"
    value {
      s: "rnn/conv_lstm_cell_lite/input_to_cell_w"
    }
  }
}
node {
  name: "rnn/conv_lstm_cell_lite/input_to_cell_w/IsInitialized/VarIsInitializedOp"
  op: "VarIsInitializedOp"
  input: "rnn/conv_lstm_cell_lite/input_to_cell_w"
}
node {
  name: "rnn/conv_lstm_cell_lite/input_to_cell_w/Assign"
  op: "AssignVariableOp"
  input: "rnn/conv_lstm_cell_lite/input_to_cell_w"
  input: "rnn/conv_lstm_cell_lite/input_to_cell_w/Initializer/random_uniform"
  attr {
    key: "dtype"
    value {
      type: DT_FLOAT
    }
  }
}
node {
  name: "rnn/conv_lstm_cell_lite/input_to_cell_w/Read/ReadVariableOp"
  op: "ReadVariableOp"
  input: "rnn/conv_lstm_cell_lite/input_to_cell_w"
  attr {
    key: "dtype"
    value {
      type: DT_FLOAT
    }
  }
}
node {
  name: "rnn/conv_lstm_cell_lite/input_to_cell_w/Read/Identity"
  op: "Identity"
  input: "rnn/conv_lstm_cell_lite/input_to_cell_w/Read/ReadVariableOp"
  attr {
    key: "T"
    value {
      type: DT_FLOAT
    }
  }
}
node {
  name: "rnn/conv_lstm_cell_lite/input_to_output_w/Initializer/random_uniform/shape"
  op: "Const"
  attr {
    key: "_class"
    value {
      list {
        s: "loc:@rnn/conv_lstm_cell_lite/input_to_output_w"
      }
    }
  }
  attr {
    key: "dtype"
    value {
      type: DT_INT32
    }
  }
  attr {
    key: "value"
    value {
      tensor {
        dtype: DT_INT32
        tensor_shape {
          dim {
            size: 2
          }
        }
        tensor_content: "\001\000\000\000\020\'\000\000"
      }
    }
  }
}
node {
  name: "rnn/conv_lstm_cell_lite/input_to_output_w/Initializer/random_uniform/min"
  op: "Const"
  attr {
    key: "_class"
    value {
      list {
        s: "loc:@rnn/conv_lstm_cell_lite/input_to_output_w"
      }
    }
  }
  attr {
    key: "dtype"
    value {
      type: DT_FLOAT
    }
  }
  attr {
    key: "value"
    value {
      tensor {
        dtype: DT_FLOAT
        tensor_shape {
        }
        float_val: -0.02449367195367813
      }
    }
  }
}
node {
  name: "rnn/conv_lstm_cell_lite/input_to_output_w/Initializer/random_uniform/max"
  op: "Const"
  attr {
    key: "_class"
    value {
      list {
        s: "loc:@rnn/conv_lstm_cell_lite/input_to_output_w"
      }
    }
  }
  attr {
    key: "dtype"
    value {
      type: DT_FLOAT
    }
  }
  attr {
    key: "value"
    value {
      tensor {
        dtype: DT_FLOAT
        tensor_shape {
        }
        float_val: 0.02449367195367813
      }
    }
  }
}
node {
  name: "rnn/conv_lstm_cell_lite/input_to_output_w/Initializer/random_uniform/RandomUniform"
  op: "RandomUniform"
  input: "rnn/conv_lstm_cell_lite/input_to_output_w/Initializer/random_uniform/shape"
  attr {
    key: "T"
    value {
      type: DT_INT32
    }
  }
  attr {
    key: "_class"
    value {
      list {
        s: "loc:@rnn/conv_lstm_cell_lite/input_to_output_w"
      }
    }
  }
  attr {
    key: "dtype"
    value {
      type: DT_FLOAT
    }
  }
  attr {
    key: "seed"
    value {
      i: 0
    }
  }
  attr {
    key: "seed2"
    value {
      i: 0
    }
  }
}
node {
  name: "rnn/conv_lstm_cell_lite/input_to_output_w/Initializer/random_uniform/sub"
  op: "Sub"
  input: "rnn/conv_lstm_cell_lite/input_to_output_w/Initializer/random_uniform/max"
  input: "rnn/conv_lstm_cell_lite/input_to_output_w/Initializer/random_uniform/min"
  attr {
    key: "T"
    value {
      type: DT_FLOAT
    }
  }
  attr {
    key: "_class"
    value {
      list {
        s: "loc:@rnn/conv_lstm_cell_lite/input_to_output_w"
      }
    }
  }
}
node {
  name: "rnn/conv_lstm_cell_lite/input_to_output_w/Initializer/random_uniform/mul"
  op: "Mul"
  input: "rnn/conv_lstm_cell_lite/input_to_output_w/Initializer/random_uniform/RandomUniform"
  input: "rnn/conv_lstm_cell_lite/input_to_output_w/Initializer/random_uniform/sub"
  attr {
    key: "T"
    value {
      type: DT_FLOAT
    }
  }
  attr {
    key: "_class"
    value {
      list {
        s: "loc:@rnn/conv_lstm_cell_lite/input_to_output_w"
      }
    }
  }
}
node {
  name: "rnn/conv_lstm_cell_lite/input_to_output_w/Initializer/random_uniform"
  op: "Add"
  input: "rnn/conv_lstm_cell_lite/input_to_output_w/Initializer/random_uniform/mul"
  input: "rnn/conv_lstm_cell_lite/input_to_output_w/Initializer/random_uniform/min"
  attr {
    key: "T"
    value {
      type: DT_FLOAT
    }
  }
  attr {
    key: "_class"
    value {
      list {
        s: "loc:@rnn/conv_lstm_cell_lite/input_to_output_w"
      }
    }
  }
}
node {
  name: "rnn/conv_lstm_cell_lite/input_to_output_w"
  op: "VarHandleOp"
  attr {
    key: "_class"
    value {
      list {
        s: "loc:@rnn/conv_lstm_cell_lite/input_to_output_w"
      }
    }
  }
  attr {
    key: "container"
    value {
      s: ""
    }
  }
  attr {
    key: "dtype"
    value {
      type: DT_FLOAT
    }
  }
  attr {
    key: "shape"
    value {
      shape {
        dim {
          size: 1
        }
        dim {
          size: 10000
        }
      }
    }
  }
  attr {
    key: "shared_name"
    value {
      s: "rnn/conv_lstm_cell_lite/input_to_output_w"
    }
  }
}
node {
  name: "rnn/conv_lstm_cell_lite/input_to_output_w/IsInitialized/VarIsInitializedOp"
  op: "VarIsInitializedOp"
  input: "rnn/conv_lstm_cell_lite/input_to_output_w"
}
node {
  name: "rnn/conv_lstm_cell_lite/input_to_output_w/Assign"
  op: "AssignVariableOp"
  input: "rnn/conv_lstm_cell_lite/input_to_output_w"
  input: "rnn/conv_lstm_cell_lite/input_to_output_w/Initializer/random_uniform"
  attr {
    key: "dtype"
    value {
      type: DT_FLOAT
    }
  }
}
node {
  name: "rnn/conv_lstm_cell_lite/input_to_output_w/Read/ReadVariableOp"
  op: "ReadVariableOp"
  input: "rnn/conv_lstm_cell_lite/input_to_output_w"
  attr {
    key: "dtype"
    value {
      type: DT_FLOAT
    }
  }
}
node {
  name: "rnn/conv_lstm_cell_lite/input_to_output_w/Read/Identity"
  op: "Identity"
  input: "rnn/conv_lstm_cell_lite/input_to_output_w/Read/ReadVariableOp"
  attr {
    key: "T"
    value {
      type: DT_FLOAT
    }
  }
}
node {
  name: "rnn/conv_lstm_cell_lite/cell_to_input_w/Initializer/random_uniform/shape"
  op: "Const"
  attr {
    key: "_class"
    value {
      list {
        s: "loc:@rnn/conv_lstm_cell_lite/cell_to_input_w"
      }
    }
  }
  attr {
    key: "dtype"
    value {
      type: DT_INT32
    }
  }
  attr {
    key: "value"
    value {
      tensor {
        dtype: DT_INT32
        tensor_shape {
          dim {
            size: 2
          }
        }
        tensor_content: "\001\000\000\000\001\000\000\000"
      }
    }
  }
}
node {
  name: "rnn/conv_lstm_cell_lite/cell_to_input_w/Initializer/random_uniform/min"
  op: "Const"
  attr {
    key: "_class"
    value {
      list {
        s: "loc:@rnn/conv_lstm_cell_lite/cell_to_input_w"
      }
    }
  }
  attr {
    key: "dtype"
    value {
      type: DT_FLOAT
    }
  }
  attr {
    key: "value"
    value {
      tensor {
        dtype: DT_FLOAT
        tensor_shape {
        }
        float_val: -1.7320507764816284
      }
    }
  }
}
node {
  name: "rnn/conv_lstm_cell_lite/cell_to_input_w/Initializer/random_uniform/max"
  op: "Const"
  attr {
    key: "_class"
    value {
      list {
        s: "loc:@rnn/conv_lstm_cell_lite/cell_to_input_w"
      }
    }
  }
  attr {
    key: "dtype"
    value {
      type: DT_FLOAT
    }
  }
  attr {
    key: "value"
    value {
      tensor {
        dtype: DT_FLOAT
        tensor_shape {
        }
        float_val: 1.7320507764816284
      }
    }
  }
}
node {
  name: "rnn/conv_lstm_cell_lite/cell_to_input_w/Initializer/random_uniform/RandomUniform"
  op: "RandomUniform"
  input: "rnn/conv_lstm_cell_lite/cell_to_input_w/Initializer/random_uniform/shape"
  attr {
    key: "T"
    value {
      type: DT_INT32
    }
  }
  attr {
    key: "_class"
    value {
      list {
        s: "loc:@rnn/conv_lstm_cell_lite/cell_to_input_w"
      }
    }
  }
  attr {
    key: "dtype"
    value {
      type: DT_FLOAT
    }
  }
  attr {
    key: "seed"
    value {
      i: 0
    }
  }
  attr {
    key: "seed2"
    value {
      i: 0
    }
  }
}
node {
  name: "rnn/conv_lstm_cell_lite/cell_to_input_w/Initializer/random_uniform/sub"
  op: "Sub"
  input: "rnn/conv_lstm_cell_lite/cell_to_input_w/Initializer/random_uniform/max"
  input: "rnn/conv_lstm_cell_lite/cell_to_input_w/Initializer/random_uniform/min"
  attr {
    key: "T"
    value {
      type: DT_FLOAT
    }
  }
  attr {
    key: "_class"
    value {
      list {
        s: "loc:@rnn/conv_lstm_cell_lite/cell_to_input_w"
      }
    }
  }
}
node {
  name: "rnn/conv_lstm_cell_lite/cell_to_input_w/Initializer/random_uniform/mul"
  op: "Mul"
  input: "rnn/conv_lstm_cell_lite/cell_to_input_w/Initializer/random_uniform/RandomUniform"
  input: "rnn/conv_lstm_cell_lite/cell_to_input_w/Initializer/random_uniform/sub"
  attr {
    key: "T"
    value {
      type: DT_FLOAT
    }
  }
  attr {
    key: "_class"
    value {
      list {
        s: "loc:@rnn/conv_lstm_cell_lite/cell_to_input_w"
      }
    }
  }
}
node {
  name: "rnn/conv_lstm_cell_lite/cell_to_input_w/Initializer/random_uniform"
  op: "Add"
  input: "rnn/conv_lstm_cell_lite/cell_to_input_w/Initializer/random_uniform/mul"
  input: "rnn/conv_lstm_cell_lite/cell_to_input_w/Initializer/random_uniform/min"
  attr {
    key: "T"
    value {
      type: DT_FLOAT
    }
  }
  attr {
    key: "_class"
    value {
      list {
        s: "loc:@rnn/conv_lstm_cell_lite/cell_to_input_w"
      }
    }
  }
}
node {
  name: "rnn/conv_lstm_cell_lite/cell_to_input_w"
  op: "VarHandleOp"
  attr {
    key: "_class"
    value {
      list {
        s: "loc:@rnn/conv_lstm_cell_lite/cell_to_input_w"
      }
    }
  }
  attr {
    key: "container"
    value {
      s: ""
    }
  }
  attr {
    key: "dtype"
    value {
      type: DT_FLOAT
    }
  }
  attr {
    key: "shape"
    value {
      shape {
        dim {
          size: 1
        }
        dim {
          size: 1
        }
      }
    }
  }
  attr {
    key: "shared_name"
    value {
      s: "rnn/conv_lstm_cell_lite/cell_to_input_w"
    }
  }
}
node {
  name: "rnn/conv_lstm_cell_lite/cell_to_input_w/IsInitialized/VarIsInitializedOp"
  op: "VarIsInitializedOp"
  input: "rnn/conv_lstm_cell_lite/cell_to_input_w"
}
node {
  name: "rnn/conv_lstm_cell_lite/cell_to_input_w/Assign"
  op: "AssignVariableOp"
  input: "rnn/conv_lstm_cell_lite/cell_to_input_w"
  input: "rnn/conv_lstm_cell_lite/cell_to_input_w/Initializer/random_uniform"
  attr {
    key: "dtype"
    value {
      type: DT_FLOAT
    }
  }
}
node {
  name: "rnn/conv_lstm_cell_lite/cell_to_input_w/Read/ReadVariableOp"
  op: "ReadVariableOp"
  input: "rnn/conv_lstm_cell_lite/cell_to_input_w"
  attr {
    key: "dtype"
    value {
      type: DT_FLOAT
    }
  }
}
node {
  name: "rnn/conv_lstm_cell_lite/cell_to_input_w/Read/Identity"
  op: "Identity"
  input: "rnn/conv_lstm_cell_lite/cell_to_input_w/Read/ReadVariableOp"
  attr {
    key: "T"
    value {
      type: DT_FLOAT
    }
  }
}
node {
  name: "rnn/conv_lstm_cell_lite/cell_to_forget_w/Initializer/random_uniform/shape"
  op: "Const"
  attr {
    key: "_class"
    value {
      list {
        s: "loc:@rnn/conv_lstm_cell_lite/cell_to_forget_w"
      }
    }
  }
  attr {
    key: "dtype"
    value {
      type: DT_INT32
    }
  }
  attr {
    key: "value"
    value {
      tensor {
        dtype: DT_INT32
        tensor_shape {
          dim {
            size: 2
          }
        }
        tensor_content: "\001\000\000\000\001\000\000\000"
      }
    }
  }
}
node {
  name: "rnn/conv_lstm_cell_lite/cell_to_forget_w/Initializer/random_uniform/min"
  op: "Const"
  attr {
    key: "_class"
    value {
      list {
        s: "loc:@rnn/conv_lstm_cell_lite/cell_to_forget_w"
      }
    }
  }
  attr {
    key: "dtype"
    value {
      type: DT_FLOAT
    }
  }
  attr {
    key: "value"
    value {
      tensor {
        dtype: DT_FLOAT
        tensor_shape {
        }
        float_val: -1.7320507764816284
      }
    }
  }
}
node {
  name: "rnn/conv_lstm_cell_lite/cell_to_forget_w/Initializer/random_uniform/max"
  op: "Const"
  attr {
    key: "_class"
    value {
      list {
        s: "loc:@rnn/conv_lstm_cell_lite/cell_to_forget_w"
      }
    }
  }
  attr {
    key: "dtype"
    value {
      type: DT_FLOAT
    }
  }
  attr {
    key: "value"
    value {
      tensor {
        dtype: DT_FLOAT
        tensor_shape {
        }
        float_val: 1.7320507764816284
      }
    }
  }
}
node {
  name: "rnn/conv_lstm_cell_lite/cell_to_forget_w/Initializer/random_uniform/RandomUniform"
  op: "RandomUniform"
  input: "rnn/conv_lstm_cell_lite/cell_to_forget_w/Initializer/random_uniform/shape"
  attr {
    key: "T"
    value {
      type: DT_INT32
    }
  }
  attr {
    key: "_class"
    value {
      list {
        s: "loc:@rnn/conv_lstm_cell_lite/cell_to_forget_w"
      }
    }
  }
  attr {
    key: "dtype"
    value {
      type: DT_FLOAT
    }
  }
  attr {
    key: "seed"
    value {
      i: 0
    }
  }
  attr {
    key: "seed2"
    value {
      i: 0
    }
  }
}
node {
  name: "rnn/conv_lstm_cell_lite/cell_to_forget_w/Initializer/random_uniform/sub"
  op: "Sub"
  input: "rnn/conv_lstm_cell_lite/cell_to_forget_w/Initializer/random_uniform/max"
  input: "rnn/conv_lstm_cell_lite/cell_to_forget_w/Initializer/random_uniform/min"
  attr {
    key: "T"
    value {
      type: DT_FLOAT
    }
  }
  attr {
    key: "_class"
    value {
      list {
        s: "loc:@rnn/conv_lstm_cell_lite/cell_to_forget_w"
      }
    }
  }
}
node {
  name: "rnn/conv_lstm_cell_lite/cell_to_forget_w/Initializer/random_uniform/mul"
  op: "Mul"
  input: "rnn/conv_lstm_cell_lite/cell_to_forget_w/Initializer/random_uniform/RandomUniform"
  input: "rnn/conv_lstm_cell_lite/cell_to_forget_w/Initializer/random_uniform/sub"
  attr {
    key: "T"
    value {
      type: DT_FLOAT
    }
  }
  attr {
    key: "_class"
    value {
      list {
        s: "loc:@rnn/conv_lstm_cell_lite/cell_to_forget_w"
      }
    }
  }
}
node {
  name: "rnn/conv_lstm_cell_lite/cell_to_forget_w/Initializer/random_uniform"
  op: "Add"
  input: "rnn/conv_lstm_cell_lite/cell_to_forget_w/Initializer/random_uniform/mul"
  input: "rnn/conv_lstm_cell_lite/cell_to_forget_w/Initializer/random_uniform/min"
  attr {
    key: "T"
    value {
      type: DT_FLOAT
    }
  }
  attr {
    key: "_class"
    value {
      list {
        s: "loc:@rnn/conv_lstm_cell_lite/cell_to_forget_w"
      }
    }
  }
}
node {
  name: "rnn/conv_lstm_cell_lite/cell_to_forget_w"
  op: "VarHandleOp"
  attr {
    key: "_class"
    value {
      list {
        s: "loc:@rnn/conv_lstm_cell_lite/cell_to_forget_w"
      }
    }
  }
  attr {
    key: "container"
    value {
      s: ""
    }
  }
  attr {
    key: "dtype"
    value {
      type: DT_FLOAT
    }
  }
  attr {
    key: "shape"
    value {
      shape {
        dim {
          size: 1
        }
        dim {
          size: 1
        }
      }
    }
  }
  attr {
    key: "shared_name"
    value {
      s: "rnn/conv_lstm_cell_lite/cell_to_forget_w"
    }
  }
}
node {
  name: "rnn/conv_lstm_cell_lite/cell_to_forget_w/IsInitialized/VarIsInitializedOp"
  op: "VarIsInitializedOp"
  input: "rnn/conv_lstm_cell_lite/cell_to_forget_w"
}
node {
  name: "rnn/conv_lstm_cell_lite/cell_to_forget_w/Assign"
  op: "AssignVariableOp"
  input: "rnn/conv_lstm_cell_lite/cell_to_forget_w"
  input: "rnn/conv_lstm_cell_lite/cell_to_forget_w/Initializer/random_uniform"
  attr {
    key: "dtype"
    value {
      type: DT_FLOAT
    }
  }
}
node {
  name: "rnn/conv_lstm_cell_lite/cell_to_forget_w/Read/ReadVariableOp"
  op: "ReadVariableOp"
  input: "rnn/conv_lstm_cell_lite/cell_to_forget_w"
  attr {
    key: "dtype"
    value {
      type: DT_FLOAT
    }
  }
}
node {
  name: "rnn/conv_lstm_cell_lite/cell_to_forget_w/Read/Identity"
  op: "Identity"
  input: "rnn/conv_lstm_cell_lite/cell_to_forget_w/Read/ReadVariableOp"
  attr {
    key: "T"
    value {
      type: DT_FLOAT
    }
  }
}
node {
  name: "rnn/conv_lstm_cell_lite/cell_to_cell_w/Initializer/random_uniform/shape"
  op: "Const"
  attr {
    key: "_class"
    value {
      list {
        s: "loc:@rnn/conv_lstm_cell_lite/cell_to_cell_w"
      }
    }
  }
  attr {
    key: "dtype"
    value {
      type: DT_INT32
    }
  }
  attr {
    key: "value"
    value {
      tensor {
        dtype: DT_INT32
        tensor_shape {
          dim {
            size: 2
          }
        }
        tensor_content: "\001\000\000\000\001\000\000\000"
      }
    }
  }
}
node {
  name: "rnn/conv_lstm_cell_lite/cell_to_cell_w/Initializer/random_uniform/min"
  op: "Const"
  attr {
    key: "_class"
    value {
      list {
        s: "loc:@rnn/conv_lstm_cell_lite/cell_to_cell_w"
      }
    }
  }
  attr {
    key: "dtype"
    value {
      type: DT_FLOAT
    }
  }
  attr {
    key: "value"
    value {
      tensor {
        dtype: DT_FLOAT
        tensor_shape {
        }
        float_val: -1.7320507764816284
      }
    }
  }
}
node {
  name: "rnn/conv_lstm_cell_lite/cell_to_cell_w/Initializer/random_uniform/max"
  op: "Const"
  attr {
    key: "_class"
    value {
      list {
        s: "loc:@rnn/conv_lstm_cell_lite/cell_to_cell_w"
      }
    }
  }
  attr {
    key: "dtype"
    value {
      type: DT_FLOAT
    }
  }
  attr {
    key: "value"
    value {
      tensor {
        dtype: DT_FLOAT
        tensor_shape {
        }
        float_val: 1.7320507764816284
      }
    }
  }
}
node {
  name: "rnn/conv_lstm_cell_lite/cell_to_cell_w/Initializer/random_uniform/RandomUniform"
  op: "RandomUniform"
  input: "rnn/conv_lstm_cell_lite/cell_to_cell_w/Initializer/random_uniform/shape"
  attr {
    key: "T"
    value {
      type: DT_INT32
    }
  }
  attr {
    key: "_class"
    value {
      list {
        s: "loc:@rnn/conv_lstm_cell_lite/cell_to_cell_w"
      }
    }
  }
  attr {
    key: "dtype"
    value {
      type: DT_FLOAT
    }
  }
  attr {
    key: "seed"
    value {
      i: 0
    }
  }
  attr {
    key: "seed2"
    value {
      i: 0
    }
  }
}
node {
  name: "rnn/conv_lstm_cell_lite/cell_to_cell_w/Initializer/random_uniform/sub"
  op: "Sub"
  input: "rnn/conv_lstm_cell_lite/cell_to_cell_w/Initializer/random_uniform/max"
  input: "rnn/conv_lstm_cell_lite/cell_to_cell_w/Initializer/random_uniform/min"
  attr {
    key: "T"
    value {
      type: DT_FLOAT
    }
  }
  attr {
    key: "_class"
    value {
      list {
        s: "loc:@rnn/conv_lstm_cell_lite/cell_to_cell_w"
      }
    }
  }
}
node {
  name: "rnn/conv_lstm_cell_lite/cell_to_cell_w/Initializer/random_uniform/mul"
  op: "Mul"
  input: "rnn/conv_lstm_cell_lite/cell_to_cell_w/Initializer/random_uniform/RandomUniform"
  input: "rnn/conv_lstm_cell_lite/cell_to_cell_w/Initializer/random_uniform/sub"
  attr {
    key: "T"
    value {
      type: DT_FLOAT
    }
  }
  attr {
    key: "_class"
    value {
      list {
        s: "loc:@rnn/conv_lstm_cell_lite/cell_to_cell_w"
      }
    }
  }
}
node {
  name: "rnn/conv_lstm_cell_lite/cell_to_cell_w/Initializer/random_uniform"
  op: "Add"
  input: "rnn/conv_lstm_cell_lite/cell_to_cell_w/Initializer/random_uniform/mul"
  input: "rnn/conv_lstm_cell_lite/cell_to_cell_w/Initializer/random_uniform/min"
  attr {
    key: "T"
    value {
      type: DT_FLOAT
    }
  }
  attr {
    key: "_class"
    value {
      list {
        s: "loc:@rnn/conv_lstm_cell_lite/cell_to_cell_w"
      }
    }
  }
}
node {
  name: "rnn/conv_lstm_cell_lite/cell_to_cell_w"
  op: "VarHandleOp"
  attr {
    key: "_class"
    value {
      list {
        s: "loc:@rnn/conv_lstm_cell_lite/cell_to_cell_w"
      }
    }
  }
  attr {
    key: "container"
    value {
      s: ""
    }
  }
  attr {
    key: "dtype"
    value {
      type: DT_FLOAT
    }
  }
  attr {
    key: "shape"
    value {
      shape {
        dim {
          size: 1
        }
        dim {
          size: 1
        }
      }
    }
  }
  attr {
    key: "shared_name"
    value {
      s: "rnn/conv_lstm_cell_lite/cell_to_cell_w"
    }
  }
}
node {
  name: "rnn/conv_lstm_cell_lite/cell_to_cell_w/IsInitialized/VarIsInitializedOp"
  op: "VarIsInitializedOp"
  input: "rnn/conv_lstm_cell_lite/cell_to_cell_w"
}
node {
  name: "rnn/conv_lstm_cell_lite/cell_to_cell_w/Assign"
  op: "AssignVariableOp"
  input: "rnn/conv_lstm_cell_lite/cell_to_cell_w"
  input: "rnn/conv_lstm_cell_lite/cell_to_cell_w/Initializer/random_uniform"
  attr {
    key: "dtype"
    value {
      type: DT_FLOAT
    }
  }
}
node {
  name: "rnn/conv_lstm_cell_lite/cell_to_cell_w/Read/ReadVariableOp"
  op: "ReadVariableOp"
  input: "rnn/conv_lstm_cell_lite/cell_to_cell_w"
  attr {
    key: "dtype"
    value {
      type: DT_FLOAT
    }
  }
}
node {
  name: "rnn/conv_lstm_cell_lite/cell_to_cell_w/Read/Identity"
  op: "Identity"
  input: "rnn/conv_lstm_cell_lite/cell_to_cell_w/Read/ReadVariableOp"
  attr {
    key: "T"
    value {
      type: DT_FLOAT
    }
  }
}
node {
  name: "rnn/conv_lstm_cell_lite/cell_to_output_w/Initializer/random_uniform/shape"
  op: "Const"
  attr {
    key: "_class"
    value {
      list {
        s: "loc:@rnn/conv_lstm_cell_lite/cell_to_output_w"
      }
    }
  }
  attr {
    key: "dtype"
    value {
      type: DT_INT32
    }
  }
  attr {
    key: "value"
    value {
      tensor {
        dtype: DT_INT32
        tensor_shape {
          dim {
            size: 2
          }
        }
        tensor_content: "\001\000\000\000\001\000\000\000"
      }
    }
  }
}
node {
  name: "rnn/conv_lstm_cell_lite/cell_to_output_w/Initializer/random_uniform/min"
  op: "Const"
  attr {
    key: "_class"
    value {
      list {
        s: "loc:@rnn/conv_lstm_cell_lite/cell_to_output_w"
      }
    }
  }
  attr {
    key: "dtype"
    value {
      type: DT_FLOAT
    }
  }
  attr {
    key: "value"
    value {
      tensor {
        dtype: DT_FLOAT
        tensor_shape {
        }
        float_val: -1.7320507764816284
      }
    }
  }
}
node {
  name: "rnn/conv_lstm_cell_lite/cell_to_output_w/Initializer/random_uniform/max"
  op: "Const"
  attr {
    key: "_class"
    value {
      list {
        s: "loc:@rnn/conv_lstm_cell_lite/cell_to_output_w"
      }
    }
  }
  attr {
    key: "dtype"
    value {
      type: DT_FLOAT
    }
  }
  attr {
    key: "value"
    value {
      tensor {
        dtype: DT_FLOAT
        tensor_shape {
        }
        float_val: 1.7320507764816284
      }
    }
  }
}
node {
  name: "rnn/conv_lstm_cell_lite/cell_to_output_w/Initializer/random_uniform/RandomUniform"
  op: "RandomUniform"
  input: "rnn/conv_lstm_cell_lite/cell_to_output_w/Initializer/random_uniform/shape"
  attr {
    key: "T"
    value {
      type: DT_INT32
    }
  }
  attr {
    key: "_class"
    value {
      list {
        s: "loc:@rnn/conv_lstm_cell_lite/cell_to_output_w"
      }
    }
  }
  attr {
    key: "dtype"
    value {
      type: DT_FLOAT
    }
  }
  attr {
    key: "seed"
    value {
      i: 0
    }
  }
  attr {
    key: "seed2"
    value {
      i: 0
    }
  }
}
node {
  name: "rnn/conv_lstm_cell_lite/cell_to_output_w/Initializer/random_uniform/sub"
  op: "Sub"
  input: "rnn/conv_lstm_cell_lite/cell_to_output_w/Initializer/random_uniform/max"
  input: "rnn/conv_lstm_cell_lite/cell_to_output_w/Initializer/random_uniform/min"
  attr {
    key: "T"
    value {
      type: DT_FLOAT
    }
  }
  attr {
    key: "_class"
    value {
      list {
        s: "loc:@rnn/conv_lstm_cell_lite/cell_to_output_w"
      }
    }
  }
}
node {
  name: "rnn/conv_lstm_cell_lite/cell_to_output_w/Initializer/random_uniform/mul"
  op: "Mul"
  input: "rnn/conv_lstm_cell_lite/cell_to_output_w/Initializer/random_uniform/RandomUniform"
  input: "rnn/conv_lstm_cell_lite/cell_to_output_w/Initializer/random_uniform/sub"
  attr {
    key: "T"
    value {
      type: DT_FLOAT
    }
  }
  attr {
    key: "_class"
    value {
      list {
        s: "loc:@rnn/conv_lstm_cell_lite/cell_to_output_w"
      }
    }
  }
}
node {
  name: "rnn/conv_lstm_cell_lite/cell_to_output_w/Initializer/random_uniform"
  op: "Add"
  input: "rnn/conv_lstm_cell_lite/cell_to_output_w/Initializer/random_uniform/mul"
  input: "rnn/conv_lstm_cell_lite/cell_to_output_w/Initializer/random_uniform/min"
  attr {
    key: "T"
    value {
      type: DT_FLOAT
    }
  }
  attr {
    key: "_class"
    value {
      list {
        s: "loc:@rnn/conv_lstm_cell_lite/cell_to_output_w"
      }
    }
  }
}
node {
  name: "rnn/conv_lstm_cell_lite/cell_to_output_w"
  op: "VarHandleOp"
  attr {
    key: "_class"
    value {
      list {
        s: "loc:@rnn/conv_lstm_cell_lite/cell_to_output_w"
      }
    }
  }
  attr {
    key: "container"
    value {
      s: ""
    }
  }
  attr {
    key: "dtype"
    value {
      type: DT_FLOAT
    }
  }
  attr {
    key: "shape"
    value {
      shape {
        dim {
          size: 1
        }
        dim {
          size: 1
        }
      }
    }
  }
  attr {
    key: "shared_name"
    value {
      s: "rnn/conv_lstm_cell_lite/cell_to_output_w"
    }
  }
}
node {
  name: "rnn/conv_lstm_cell_lite/cell_to_output_w/IsInitialized/VarIsInitializedOp"
  op: "VarIsInitializedOp"
  input: "rnn/conv_lstm_cell_lite/cell_to_output_w"
}
node {
  name: "rnn/conv_lstm_cell_lite/cell_to_output_w/Assign"
  op: "AssignVariableOp"
  input: "rnn/conv_lstm_cell_lite/cell_to_output_w"
  input: "rnn/conv_lstm_cell_lite/cell_to_output_w/Initializer/random_uniform"
  attr {
    key: "dtype"
    value {
      type: DT_FLOAT
    }
  }
}
node {
  name: "rnn/conv_lstm_cell_lite/cell_to_output_w/Read/ReadVariableOp"
  op: "ReadVariableOp"
  input: "rnn/conv_lstm_cell_lite/cell_to_output_w"
  attr {
    key: "dtype"
    value {
      type: DT_FLOAT
    }
  }
}
node {
  name: "rnn/conv_lstm_cell_lite/cell_to_output_w/Read/Identity"
  op: "Identity"
  input: "rnn/conv_lstm_cell_lite/cell_to_output_w/Read/ReadVariableOp"
  attr {
    key: "T"
    value {
      type: DT_FLOAT
    }
  }
}
node {
  name: "rnn/conv_lstm_cell_lite/input_bias/Initializer/zeros"
  op: "Const"
  attr {
    key: "_class"
    value {
      list {
        s: "loc:@rnn/conv_lstm_cell_lite/input_bias"
      }
    }
  }
  attr {
    key: "dtype"
    value {
      type: DT_FLOAT
    }
  }
  attr {
    key: "value"
    value {
      tensor {
        dtype: DT_FLOAT
        tensor_shape {
          dim {
            size: 1
          }
        }
        float_val: 0.0
      }
    }
  }
}
node {
  name: "rnn/conv_lstm_cell_lite/input_bias"
  op: "VarHandleOp"
  attr {
    key: "_class"
    value {
      list {
        s: "loc:@rnn/conv_lstm_cell_lite/input_bias"
      }
    }
  }
  attr {
    key: "container"
    value {
      s: ""
    }
  }
  attr {
    key: "dtype"
    value {
      type: DT_FLOAT
    }
  }
  attr {
    key: "shape"
    value {
      shape {
        dim {
          size: 1
        }
      }
    }
  }
  attr {
    key: "shared_name"
    value {
      s: "rnn/conv_lstm_cell_lite/input_bias"
    }
  }
}
node {
  name: "rnn/conv_lstm_cell_lite/input_bias/IsInitialized/VarIsInitializedOp"
  op: "VarIsInitializedOp"
  input: "rnn/conv_lstm_cell_lite/input_bias"
}
node {
  name: "rnn/conv_lstm_cell_lite/input_bias/Assign"
  op: "AssignVariableOp"
  input: "rnn/conv_lstm_cell_lite/input_bias"
  input: "rnn/conv_lstm_cell_lite/input_bias/Initializer/zeros"
  attr {
    key: "dtype"
    value {
      type: DT_FLOAT
    }
  }
}
node {
  name: "rnn/conv_lstm_cell_lite/input_bias/Read/ReadVariableOp"
  op: "ReadVariableOp"
  input: "rnn/conv_lstm_cell_lite/input_bias"
  attr {
    key: "dtype"
    value {
      type: DT_FLOAT
    }
  }
}
node {
  name: "rnn/conv_lstm_cell_lite/input_bias/Read/Identity"
  op: "Identity"
  input: "rnn/conv_lstm_cell_lite/input_bias/Read/ReadVariableOp"
  attr {
    key: "T"
    value {
      type: DT_FLOAT
    }
  }
}
node {
  name: "rnn/conv_lstm_cell_lite/forget_bias/Initializer/Const"
  op: "Const"
  attr {
    key: "_class"
    value {
      list {
        s: "loc:@rnn/conv_lstm_cell_lite/forget_bias"
      }
    }
  }
  attr {
    key: "dtype"
    value {
      type: DT_FLOAT
    }
  }
  attr {
    key: "value"
    value {
      tensor {
        dtype: DT_FLOAT
        tensor_shape {
          dim {
            size: 1
          }
        }
        float_val: 1.0
      }
    }
  }
}
node {
  name: "rnn/conv_lstm_cell_lite/forget_bias"
  op: "VarHandleOp"
  attr {
    key: "_class"
    value {
      list {
        s: "loc:@rnn/conv_lstm_cell_lite/forget_bias"
      }
    }
  }
  attr {
    key: "container"
    value {
      s: ""
    }
  }
  attr {
    key: "dtype"
    value {
      type: DT_FLOAT
    }
  }
  attr {
    key: "shape"
    value {
      shape {
        dim {
          size: 1
        }
      }
    }
  }
  attr {
    key: "shared_name"
    value {
      s: "rnn/conv_lstm_cell_lite/forget_bias"
    }
  }
}
node {
  name: "rnn/conv_lstm_cell_lite/forget_bias/IsInitialized/VarIsInitializedOp"
  op: "VarIsInitializedOp"
  input: "rnn/conv_lstm_cell_lite/forget_bias"
}
node {
  name: "rnn/conv_lstm_cell_lite/forget_bias/Assign"
  op: "AssignVariableOp"
  input: "rnn/conv_lstm_cell_lite/forget_bias"
  input: "rnn/conv_lstm_cell_lite/forget_bias/Initializer/Const"
  attr {
    key: "dtype"
    value {
      type: DT_FLOAT
    }
  }
}
node {
  name: "rnn/conv_lstm_cell_lite/forget_bias/Read/ReadVariableOp"
  op: "ReadVariableOp"
  input: "rnn/conv_lstm_cell_lite/forget_bias"
  attr {
    key: "dtype"
    value {
      type: DT_FLOAT
    }
  }
}
node {
  name: "rnn/conv_lstm_cell_lite/forget_bias/Read/Identity"
  op: "Identity"
  input: "rnn/conv_lstm_cell_lite/forget_bias/Read/ReadVariableOp"
  attr {
    key: "T"
    value {
      type: DT_FLOAT
    }
  }
}
node {
  name: "rnn/conv_lstm_cell_lite/cell_bias/Initializer/zeros"
  op: "Const"
  attr {
    key: "_class"
    value {
      list {
        s: "loc:@rnn/conv_lstm_cell_lite/cell_bias"
      }
    }
  }
  attr {
    key: "dtype"
    value {
      type: DT_FLOAT
    }
  }
  attr {
    key: "value"
    value {
      tensor {
        dtype: DT_FLOAT
        tensor_shape {
          dim {
            size: 1
          }
        }
        float_val: 0.0
      }
    }
  }
}
node {
  name: "rnn/conv_lstm_cell_lite/cell_bias"
  op: "VarHandleOp"
  attr {
    key: "_class"
    value {
      list {
        s: "loc:@rnn/conv_lstm_cell_lite/cell_bias"
      }
    }
  }
  attr {
    key: "container"
    value {
      s: ""
    }
  }
  attr {
    key: "dtype"
    value {
      type: DT_FLOAT
    }
  }
  attr {
    key: "shape"
    value {
      shape {
        dim {
          size: 1
        }
      }
    }
  }
  attr {
    key: "shared_name"
    value {
      s: "rnn/conv_lstm_cell_lite/cell_bias"
    }
  }
}
node {
  name: "rnn/conv_lstm_cell_lite/cell_bias/IsInitialized/VarIsInitializedOp"
  op: "VarIsInitializedOp"
  input: "rnn/conv_lstm_cell_lite/cell_bias"
}
node {
  name: "rnn/conv_lstm_cell_lite/cell_bias/Assign"
  op: "AssignVariableOp"
  input: "rnn/conv_lstm_cell_lite/cell_bias"
  input: "rnn/conv_lstm_cell_lite/cell_bias/Initializer/zeros"
  attr {
    key: "dtype"
    value {
      type: DT_FLOAT
    }
  }
}
node {
  name: "rnn/conv_lstm_cell_lite/cell_bias/Read/ReadVariableOp"
  op: "ReadVariableOp"
  input: "rnn/conv_lstm_cell_lite/cell_bias"
  attr {
    key: "dtype"
    value {
      type: DT_FLOAT
    }
  }
}
node {
  name: "rnn/conv_lstm_cell_lite/cell_bias/Read/Identity"
  op: "Identity"
  input: "rnn/conv_lstm_cell_lite/cell_bias/Read/ReadVariableOp"
  attr {
    key: "T"
    value {
      type: DT_FLOAT
    }
  }
}
node {
  name: "rnn/conv_lstm_cell_lite/output_bias/Initializer/zeros"
  op: "Const"
  attr {
    key: "_class"
    value {
      list {
        s: "loc:@rnn/conv_lstm_cell_lite/output_bias"
      }
    }
  }
  attr {
    key: "dtype"
    value {
      type: DT_FLOAT
    }
  }
  attr {
    key: "value"
    value {
      tensor {
        dtype: DT_FLOAT
        tensor_shape {
          dim {
            size: 1
          }
        }
        float_val: 0.0
      }
    }
  }
}
node {
  name: "rnn/conv_lstm_cell_lite/output_bias"
  op: "VarHandleOp"
  attr {
    key: "_class"
    value {
      list {
        s: "loc:@rnn/conv_lstm_cell_lite/output_bias"
      }
    }
  }
  attr {
    key: "container"
    value {
      s: ""
    }
  }
  attr {
    key: "dtype"
    value {
      type: DT_FLOAT
    }
  }
  attr {
    key: "shape"
    value {
      shape {
        dim {
          size: 1
        }
      }
    }
  }
  attr {
    key: "shared_name"
    value {
      s: "rnn/conv_lstm_cell_lite/output_bias"
    }
  }
}
node {
  name: "rnn/conv_lstm_cell_lite/output_bias/IsInitialized/VarIsInitializedOp"
  op: "VarIsInitializedOp"
  input: "rnn/conv_lstm_cell_lite/output_bias"
}
node {
  name: "rnn/conv_lstm_cell_lite/output_bias/Assign"
  op: "AssignVariableOp"
  input: "rnn/conv_lstm_cell_lite/output_bias"
  input: "rnn/conv_lstm_cell_lite/output_bias/Initializer/zeros"
  attr {
    key: "dtype"
    value {
      type: DT_FLOAT
    }
  }
}
node {
  name: "rnn/conv_lstm_cell_lite/output_bias/Read/ReadVariableOp"
  op: "ReadVariableOp"
  input: "rnn/conv_lstm_cell_lite/output_bias"
  attr {
    key: "dtype"
    value {
      type: DT_FLOAT
    }
  }
}
node {
  name: "rnn/conv_lstm_cell_lite/output_bias/Read/Identity"
  op: "Identity"
  input: "rnn/conv_lstm_cell_lite/output_bias/Read/ReadVariableOp"
  attr {
    key: "T"
    value {
      type: DT_FLOAT
    }
  }
}
node {
  name: "conv_lstm_cell_lite/kernel/Initializer/initial_value"
  op: "Const"
  attr {
    key: "_class"
    value {
      list {
        s: "loc:@conv_lstm_cell_lite/kernel"
      }
    }
  }
  attr {
    key: "dtype"
    value {
      type: DT_FLOAT
    }
  }
  attr {
    key: "value"
    value {
      tensor {
        dtype: DT_FLOAT
        tensor_shape {
          dim {
            size: 3
          }
          dim {
            size: 3
          }
          dim {
            size: 13
          }
          dim {
            size: 48
          }
        }
        tensor_content: "…"
      }
    }
  }
}
node {
  name: "conv_lstm_cell_lite/kernel"
  op: "VarHandleOp"
  attr {
    key: "_class"
    value {
      list {
        s: "loc:@conv_lstm_cell_lite/kernel"
      }
    }
  }
  attr {
    key: "container"
    value {
      s: ""
    }
  }
  attr {
    key: "dtype"
    value {
      type: DT_FLOAT
    }
  }
  attr {
    key: "shape"
    value {
      shape {
        dim {
          size: 3
        }
        dim {
          size: 3
        }
        dim {
          size: 13
        }
        dim {
          size: 48
        }
      }
    }
  }
  attr {
    key: "shared_name"
    value {
      s: "conv_lstm_cell_lite/kernel"
    }
  }
}
node {
  name: "conv_lstm_cell_lite/kernel/IsInitialized/VarIsInitializedOp"
  op: "VarIsInitializedOp"
  input: "conv_lstm_cell_lite/kernel"
}
node {
  name: "conv_lstm_cell_lite/kernel/Assign"
  op: "AssignVariableOp"
  input: "conv_lstm_cell_lite/kernel"
  input: "conv_lstm_cell_lite/kernel/Initializer/initial_value"
  attr {
    key: "dtype"
    value {
      type: DT_FLOAT
    }
  }
}
node {
  name: "conv_lstm_cell_lite/kernel/Read/ReadVariableOp"
  op: "ReadVariableOp"
  input: "conv_lstm_cell_lite/kernel"
  attr {
    key: "dtype"
    value {
      type: DT_FLOAT
    }
  }
}
node {
  name: "conv_lstm_cell_lite/bias/Initializer/initial_value"
  op: "Const"
  attr {
    key: "_class"
    value {
      list {
        s: "loc:@conv_lstm_cell_lite/bias"
      }
    }
  }
  attr {
    key: "dtype"
    value {
      type: DT_FLOAT
    }
  }
  attr {
    key: "value"
    value {
      tensor {
        dtype: DT_FLOAT
        tensor_shape {
          dim {
            size: 48
          }
        }
        tensor_content: "…"
      }
    }
  }
}
node {
  name: "conv_lstm_cell_lite/bias"
  op: "VarHandleOp"
  attr {
    key: "_class"
    value {
      list {
        s: "loc:@conv_lstm_cell_lite/bias"
      }
    }
  }
  attr {
    key: "container"
    value {
      s: ""
    }
  }
  attr {
    key: "dtype"
    value {
      type: DT_FLOAT
    }
  }
  attr {
    key: "shape"
    value {
      shape {
        dim {
          size: 48
        }
      }
    }
  }
  attr {
    key: "shared_name"
    value {
      s: "conv_lstm_cell_lite/bias"
    }
  }
}
node {
  name: "conv_lstm_cell_lite/bias/IsInitialized/VarIsInitializedOp"
  op: "VarIsInitializedOp"
  input: "conv_lstm_cell_lite/bias"
}
node {
  name: "conv_lstm_cell_lite/bias/Assign"
  op: "AssignVariableOp"
  input: "conv_lstm_cell_lite/bias"
  input: "conv_lstm_cell_lite/bias/Initializer/initial_value"
  attr {
    key: "dtype"
    value {
      type: DT_FLOAT
    }
  }
}
node {
  name: "conv_lstm_cell_lite/bias/Read/ReadVariableOp"
  op: "ReadVariableOp"
  input: "conv_lstm_cell_lite/bias"
  attr {
    key: "dtype"
    value {
      type: DT_FLOAT
    }
  }
}
node {
  name: "rnn/while"
  op: "While"
  input: "rnn/while/loop_counter"
  input: "rnn/strided_slice"
  input: "rnn/time"
  input: "rnn/TensorArrayV2"
  input: "rnn/ConvLSTMCell_liteZeroState/zeros"
  input: "rnn/ConvLSTMCell_liteZeroState/zeros_1"
  input: "rnn/Minimum"
  input: "rnn/TensorArrayUnstack/TensorListFromTensor"
  input: "rnn/conv_lstm_cell_lite/input_to_input_w/Read/Identity"
  input: "rnn/conv_lstm_cell_lite/input_to_forget_w/Read/Identity"
  input: "rnn/conv_lstm_cell_lite/input_to_cell_w/Read/Identity"
  input: "rnn/conv_lstm_cell_lite/input_to_output_w/Read/Identity"
  input: "rnn/conv_lstm_cell_lite/cell_to_input_w/Read/Identity"
  input: "rnn/conv_lstm_cell_lite/cell_to_forget_w/Read/Identity"
  input: "rnn/conv_lstm_cell_lite/cell_to_cell_w/Read/Identity"
  input: "rnn/conv_lstm_cell_lite/cell_to_output_w/Read/Identity"
  input: "rnn/conv_lstm_cell_lite/input_bias/Read/Identity"
  input: "rnn/conv_lstm_cell_lite/forget_bias/Read/Identity"
  input: "rnn/conv_lstm_cell_lite/cell_bias/Read/Identity"
  input: "rnn/conv_lstm_cell_lite/output_bias/Read/Identity"
  input: "conv_lstm_cell_lite/kernel"
  input: "conv_lstm_cell_lite/bias"
  attr {
    key: "T"
    value {
      list {
        type: DT_INT32
        type: DT_INT32
        type: DT_INT32
        type: DT_VARIANT
        type: DT_FLOAT
        type: DT_FLOAT
        type: DT_INT32
        type: DT_VARIANT
        type: DT_FLOAT
        type: DT_FLOAT
        type: DT_FLOAT
        type: DT_FLOAT
        type: DT_FLOAT
        type: DT_FLOAT
        type: DT_FLOAT
        type: DT_FLOAT
        type: DT_FLOAT
        type: DT_FLOAT
        type: DT_FLOAT
        type: DT_FLOAT
        type: DT_RESOURCE
        type: DT_RESOURCE
      }
    }
  }
  attr {
    key: "_lower_using_switch_merge"
    value {
      b: true
    }
  }
  attr {
    key: "_num_original_outputs"
    value {
      i: 22
    }
  }
  attr {
    key: "body"
    value {
      func {
        name: "rnn_while_body_7828"
      }
    }
  }
  attr {
    key: "cond"
    value {
      func {
        name: "rnn_while_cond_7827"
      }
    }
  }
  attr {
    key: "output_shapes"
    value {
      list {
        shape {
        }
        shape {
        }
        shape {
        }
        shape {
        }
        shape {
          dim {
            size: 10
          }
          dim {
            size: 100
          }
          dim {
            size: 100
          }
          dim {
            size: 12
          }
        }
        shape {
          dim {
            size: 10
          }
          dim {
            size: 100
          }
          dim {
            size: 100
          }
          dim {
            size: 12
          }
        }
        shape {
        }
        shape {
        }
        shape {
          dim {
            size: 1
          }
          dim {
            size: 10000
          }
        }
        shape {
          dim {
            size: 1
          }
          dim {
            size: 10000
          }
        }
        shape {
          dim {
            size: 1
          }
          dim {
            size: 10000
          }
        }
        shape {
          dim {
            size: 1
          }
          dim {
            size: 10000
          }
        }
        shape {
          dim {
            size: 1
          }
          dim {
            size: 1
          }
        }
        shape {
          dim {
            size: 1
          }
          dim {
            size: 1
          }
        }
        shape {
          dim {
            size: 1
          }
          dim {
            size: 1
          }
        }
        shape {
          dim {
            size: 1
          }
          dim {
            size: 1
          }
        }
        shape {
          dim {
            size: 1
          }
        }
        shape {
          dim {
            size: 1
          }
        }
        shape {
          dim {
            size: 1
          }
        }
        shape {
          dim {
            size: 1
          }
        }
        shape {
        }
        shape {
        }
      }
    }
  }
  attr {
    key: "parallel_iterations"
    value {
      i: 32
    }
  }
}
node {
  name: "rnn/while/Identity"
  op: "Identity"
  input: "rnn/while"
  attr {
    key: "T"
    value {
      type: DT_INT32
    }
  }
}
node {
  name: "rnn/while/Identity_1"
  op: "Identity"
  input: "rnn/while:1"
  attr {
    key: "T"
    value {
      type: DT_INT32
    }
  }
}
node {
  name: "rnn/while/Identity_2"
  op: "Identity"
  input: "rnn/while:2"
  attr {
    key: "T"
    value {
      type: DT_INT32
    }
  }
}
node {
  name: "rnn/while/Identity_3"
  op: "Identity"
  input: "rnn/while:3"
  attr {
    key: "T"
    value {
      type: DT_VARIANT
    }
  }
}
node {
  name: "rnn/while/Identity_4"
  op: "Identity"
  input: "rnn/while:4"
  attr {
    key: "T"
    value {
      type: DT_FLOAT
    }
  }
}
node {
  name: "rnn/while/Identity_5"
  op: "Identity"
  input: "rnn/while:5"
  attr {
    key: "T"
    value {
      type: DT_FLOAT
    }
  }
}
node {
  name: "rnn/while/Identity_6"
  op: "Identity"
  input: "rnn/while:6"
  attr {
    key: "T"
    value {
      type: DT_INT32
    }
  }
}
node {
  name: "rnn/while/Identity_7"
  op: "Identity"
  input: "rnn/while:7"
  attr {
    key: "T"
    value {
      type: DT_VARIANT
    }
  }
}
node {
  name: "rnn/while/Identity_8"
  op: "Identity"
  input: "rnn/while:8"
  attr {
    key: "T"
    value {
      type: DT_FLOAT
    }
  }
}
node {
  name: "rnn/while/Identity_9"
  op: "Identity"
  input: "rnn/while:9"
  attr {
    key: "T"
    value {
      type: DT_FLOAT
    }
  }
}
node {
  name: "rnn/while/Identity_10"
  op: "Identity"
  input: "rnn/while:10"
  attr {
    key: "T"
    value {
      type: DT_FLOAT
    }
  }
}
node {
  name: "rnn/while/Identity_11"
  op: "Identity"
  input: "rnn/while:11"
  attr {
    key: "T"
    value {
      type: DT_FLOAT
    }
  }
}
node {
  name: "rnn/while/Identity_12"
  op: "Identity"
  input: "rnn/while:12"
  attr {
    key: "T"
    value {
      type: DT_FLOAT
    }
  }
}
node {
  name: "rnn/while/Identity_13"
  op: "Identity"
  input: "rnn/while:13"
  attr {
    key: "T"
    value {
      type: DT_FLOAT
    }
  }
}
node {
  name: "rnn/while/Identity_14"
  op: "Identity"
  input: "rnn/while:14"
  attr {
    key: "T"
    value {
      type: DT_FLOAT
    }
  }
}
node {
  name: "rnn/while/Identity_15"
  op: "Identity"
  input: "rnn/while:15"
  attr {
    key: "T"
    value {
      type: DT_FLOAT
    }
  }
}
node {
  name: "rnn/while/Identity_16"
  op: "Identity"
  input: "rnn/while:16"
  attr {
    key: "T"
    value {
      type: DT_FLOAT
    }
  }
}
node {
  name: "rnn/while/Identity_17"
  op: "Identity"
  input: "rnn/while:17"
  attr {
    key: "T"
    value {
      type: DT_FLOAT
    }
  }
}
node {
  name: "rnn/while/Identity_18"
  op: "Identity"
  input: "rnn/while:18"
  attr {
    key: "T"
    value {
      type: DT_FLOAT
    }
  }
}
node {
  name: "rnn/while/Identity_19"
  op: "Identity"
  input: "rnn/while:19"
  attr {
    key: "T"
    value {
      type: DT_FLOAT
    }
  }
}
node {
  name: "rnn/while/Identity_20"
  op: "Identity"
  input: "rnn/while:20"
  attr {
    key: "T"
    value {
      type: DT_RESOURCE
    }
  }
}
node {
  name: "rnn/while/Identity_21"
  op: "Identity"
  input: "rnn/while:21"
  attr {
    key: "T"
    value {
      type: DT_RESOURCE
    }
  }
}
node {
  name: "rnn/TensorArrayV2Stack/TensorListStack/element_shape"
  op: "Const"
  attr {
    key: "dtype"
    value {
      type: DT_INT32
    }
  }
  attr {
    key: "value"
    value {
      tensor {
        dtype: DT_INT32
        tensor_shape {
          dim {
            size: 4
          }
        }
        tensor_content: "\n\000\000\000d\000\000\000d\000\000\000\014\000\000\000"
      }
    }
  }
}
node {
  name: "rnn/TensorArrayV2Stack/TensorListStack"
  op: "TensorListStack"
  input: "rnn/while/Identity_3"
  input: "rnn/TensorArrayV2Stack/TensorListStack/element_shape"
  attr {
    key: "element_dtype"
    value {
      type: DT_FLOAT
    }
  }
  attr {
    key: "num_elements"
    value {
      i: -1
    }
  }
}
node {
  name: "rnn/Const_2"
  op: "Const"
  attr {
    key: "dtype"
    value {
      type: DT_INT32
    }
  }
  attr {
    key: "value"
    value {
      tensor {
        dtype: DT_INT32
        tensor_shape {
          dim {
            size: 2
          }
        }
        tensor_content: "\001\000\000\000\n\000\000\000"
      }
    }
  }
}
node {
  name: "rnn/Const_3"
  op: "Const"
  attr {
    key: "dtype"
    value {
      type: DT_INT32
    }
  }
  attr {
    key: "value"
    value {
      tensor {
        dtype: DT_INT32
        tensor_shape {
          dim {
            size: 3
          }
        }
        tensor_content: "d\000\000\000d\000\000\000\014\000\000\000"
      }
    }
  }
}
node {
  name: "rnn/OutputHint-TfLiteDynamicRnn-1071b489780211ea955e901b0e08b606-0-None-outputs"
  op: "Identity"
  input: "rnn/TensorArrayV2Stack/TensorListStack"
  attr {
    key: "T"
    value {
      type: DT_FLOAT
    }
  }
  attr {
    key: "_tflite_children_ophint_inputs_mapping"
    value {
      s: "{\"parent_first_child_input\": [{\"parent_ophint_input_index\": 0, \"first_child_ophint_input_index\": 0}], \"parent_last_child_output\": [{\"parent_output_index\": 0, \"child_output_index\": -1}], \"internal_children_input_output\": [{\"child_input_index\": 0, \"child_output_index\": -1}]}"
    }
  }
  attr {
    key: "_tflite_function_name"
    value {
      s: "TfLiteDynamicRnn"
    }
  }
  attr {
    key: "_tflite_function_output_index"
    value {
      i: 0
    }
  }
  attr {
    key: "_tflite_function_uuid"
    value {
      s: "1071b489780211ea955e901b0e08b606"
    }
  }
  attr {
    key: "_tflite_ophint_level"
    value {
      i: 2
    }
  }
}
node {
  name: "strided_slice/stack"
  op: "Const"
  attr {
    key: "dtype"
    value {
      type: DT_INT32
    }
  }
  attr {
    key: "value"
    value {
      tensor {
        dtype: DT_INT32
        tensor_shape {
          dim {
            size: 5
          }
        }
        tensor_content: "\000\000\000\000\377\377\377\377\000\000\000\000\000\000\000\000\000\000\000\000"
      }
    }
  }
}
node {
  name: "strided_slice/stack_1"
  op: "Const"
  attr {
    key: "dtype"
    value {
      type: DT_INT32
    }
  }
  attr {
    key: "value"
    value {
      tensor {
        dtype: DT_INT32
        tensor_shape {
          dim {
            size: 5
          }
        }
        tensor_content: "\000\000\000\000\000\000\000\000\000\000\000\000\000\000\000\000\000\000\000\000"
      }
    }
  }
}
node {
  name: "strided_slice/stack_2"
  op: "Const"
  attr {
    key: "dtype"
    value {
      type: DT_INT32
    }
  }
  attr {
    key: "value"
    value {
      tensor {
        dtype: DT_INT32
        tensor_shape {
          dim {
            size: 5
          }
        }
        tensor_content: "\001\000\000\000\001\000\000\000\001\000\000\000\001\000\000\000\001\000\000\000"
      }
    }
  }
}
node {
  name: "strided_slice"
  op: "StridedSlice"
  input: "rnn/OutputHint-TfLiteDynamicRnn-1071b489780211ea955e901b0e08b606-0-None-outputs"
  input: "strided_slice/stack"
  input: "strided_slice/stack_1"
  input: "strided_slice/stack_2"
  attr {
    key: "Index"
    value {
      type: DT_INT32
    }
  }
  attr {
    key: "T"
    value {
      type: DT_FLOAT
    }
  }
  attr {
    key: "begin_mask"
    value {
      i: 29
    }
  }
  attr {
    key: "ellipsis_mask"
    value {
      i: 0
    }
  }
  attr {
    key: "end_mask"
    value {
      i: 29
    }
  }
  attr {
    key: "new_axis_mask"
    value {
      i: 0
    }
  }
  attr {
    key: "shrink_axis_mask"
    value {
      i: 2
    }
  }
}
node {
  name: "outputnode"
  op: "Identity"
  input: "strided_slice"
  attr {
    key: "T"
    value {
      type: DT_FLOAT
    }
  }
}
node {
  name: "mean_squared_error/SquaredDifference"
  op: "SquaredDifference"
  input: "Const"
  input: "outputnode"
  attr {
    key: "T"
    value {
      type: DT_FLOAT
    }
  }
}
node {
  name: "mean_squared_error/assert_broadcastable/weights"
  op: "Const"
  attr {
    key: "dtype"
    value {
      type: DT_FLOAT
    }
  }
  attr {
    key: "value"
    value {
      tensor {
        dtype: DT_FLOAT
        tensor_shape {
        }
        float_val: 1.0
      }
    }
  }
}
node {
  name: "mean_squared_error/assert_broadcastable/weights/shape"
  op: "Const"
  attr {
    key: "dtype"
    value {
      type: DT_INT32
    }
  }
  attr {
    key: "value"
    value {
      tensor {
        dtype: DT_INT32
        tensor_shape {
          dim {
          }
        }
      }
    }
  }
}
node {
  name: "mean_squared_error/assert_broadcastable/weights/rank"
  op: "Const"
  attr {
    key: "dtype"
    value {
      type: DT_INT32
    }
  }
  attr {
    key: "value"
    value {
      tensor {
        dtype: DT_INT32
        tensor_shape {
        }
        int_val: 0
      }
    }
  }
}
node {
  name: "mean_squared_error/assert_broadcastable/values/shape"
  op: "Const"
  attr {
    key: "dtype"
    value {
      type: DT_INT32
    }
  }
  attr {
    key: "value"
    value {
      tensor {
        dtype: DT_INT32
        tensor_shape {
          dim {
            size: 4
          }
        }
        tensor_content: "\001\000\000\000d\000\000\000d\000\000\000\014\000\000\000"
      }
    }
  }
}
node {
  name: "mean_squared_error/assert_broadcastable/values/rank"
  op: "Const"
  attr {
    key: "dtype"
    value {
      type: DT_INT32
    }
  }
  attr {
    key: "value"
    value {
      tensor {
        dtype: DT_INT32
        tensor_shape {
        }
        int_val: 4
      }
    }
  }
}
node {
  name: "mean_squared_error/assert_broadcastable/static_scalar_check_success"
  op: "NoOp"
}
node {
  name: "mean_squared_error/Cast/x"
  op: "Const"
  input: "^mean_squared_error/assert_broadcastable/static_scalar_check_success"
  attr {
    key: "dtype"
    value {
      type: DT_FLOAT
    }
  }
  attr {
    key: "value"
    value {
      tensor {
        dtype: DT_FLOAT
        tensor_shape {
        }
        float_val: 1.0
      }
    }
  }
}
node {
  name: "mean_squared_error/Mul"
  op: "Mul"
  input: "mean_squared_error/SquaredDifference"
  input: "mean_squared_error/Cast/x"
  attr {
    key: "T"
    value {
      type: DT_FLOAT
    }
  }
}
node {
  name: "mean_squared_error/Const"
  op: "Const"
  input: "^mean_squared_error/assert_broadcastable/static_scalar_check_success"
  attr {
    key: "dtype"
    value {
      type: DT_INT32
    }
  }
  attr {
    key: "value"
    value {
      tensor {
        dtype: DT_INT32
        tensor_shape {
          dim {
            size: 4
          }
        }
        tensor_content: "\000\000\000\000\001\000\000\000\002\000\000\000\003\000\000\000"
      }
    }
  }
}
node {
  name: "mean_squared_error/Sum"
  op: "Sum"
  input: "mean_squared_error/Mul"
  input: "mean_squared_error/Const"
  attr {
    key: "T"
    value {
      type: DT_FLOAT
    }
  }
  attr {
    key: "Tidx"
    value {
      type: DT_INT32
    }
  }
  attr {
    key: "keep_dims"
    value {
      b: false
    }
  }
}
node {
  name: "mean_squared_error/num_present/Equal/y"
  op: "Const"
  input: "^mean_squared_error/assert_broadcastable/static_scalar_check_success"
  attr {
    key: "dtype"
    value {
      type: DT_FLOAT
    }
  }
  attr {
    key: "value"
    value {
      tensor {
        dtype: DT_FLOAT
        tensor_shape {
        }
        float_val: 0.0
      }
    }
  }
}
node {
  name: "mean_squared_error/num_present/Equal"
  op: "Equal"
  input: "mean_squared_error/Cast/x"
  input: "mean_squared_error/num_present/Equal/y"
  attr {
    key: "T"
    value {
      type: DT_FLOAT
    }
  }
  attr {
    key: "incompatible_shape_error"
    value {
      b: true
    }
  }
}
node {
  name: "mean_squared_error/num_present/zeros_like"
  op: "Const"
  input: "^mean_squared_error/assert_broadcastable/static_scalar_check_success"
  attr {
    key: "dtype"
    value {
      type: DT_FLOAT
    }
  }
  attr {
    key: "value"
    value {
      tensor {
        dtype: DT_FLOAT
        tensor_shape {
        }
        float_val: 0.0
      }
    }
  }
}
node {
  name: "mean_squared_error/num_present/ones_like/Shape"
  op: "Const"
  input: "^mean_squared_error/assert_broadcastable/static_scalar_check_success"
  attr {
    key: "dtype"
    value {
      type: DT_INT32
    }
  }
  attr {
    key: "value"
    value {
      tensor {
        dtype: DT_INT32
        tensor_shape {
          dim {
          }
        }
      }
    }
  }
}
node {
  name: "mean_squared_error/num_present/ones_like/Const"
  op: "Const"
  input: "^mean_squared_error/assert_broadcastable/static_scalar_check_success"
  attr {
    key: "dtype"
    value {
      type: DT_FLOAT
    }
  }
  attr {
    key: "value"
    value {
      tensor {
        dtype: DT_FLOAT
        tensor_shape {
        }
        float_val: 1.0
      }
    }
  }
}
node {
  name: "mean_squared_error/num_present/ones_like"
  op: "Fill"
  input: "mean_squared_error/num_present/ones_like/Shape"
  input: "mean_squared_error/num_present/ones_like/Const"
  attr {
    key: "T"
    value {
      type: DT_FLOAT
    }
  }
  attr {
    key: "index_type"
    value {
      type: DT_INT32
    }
  }
}
node {
  name: "mean_squared_error/num_present/Select"
  op: "Select"
  input: "mean_squared_error/num_present/Equal"
  input: "mean_squared_error/num_present/zeros_like"
  input: "mean_squared_error/num_present/ones_like"
  attr {
    key: "T"
    value {
      type: DT_FLOAT
    }
  }
}
node {
  name: "mean_squared_error/num_present/broadcast_weights/assert_broadcastable/weights/shape"
  op: "Const"
  input: "^mean_squared_error/assert_broadcastable/static_scalar_check_success"
  attr {
    key: "dtype"
    value {
      type: DT_INT32
    }
  }
  attr {
    key: "value"
    value {
      tensor {
        dtype: DT_INT32
        tensor_shape {
          dim {
          }
        }
      }
    }
  }
}
node {
  name: "mean_squared_error/num_present/broadcast_weights/assert_broadcastable/weights/rank"
  op: "Const"
  input: "^mean_squared_error/assert_broadcastable/static_scalar_check_success"
  attr {
    key: "dtype"
    value {
      type: DT_INT32
    }
  }
  attr {
    key: "value"
    value {
      tensor {
        dtype: DT_INT32
        tensor_shape {
        }
        int_val: 0
      }
    }
  }
}
node {
  name: "mean_squared_error/num_present/broadcast_weights/assert_broadcastable/values/shape"
  op: "Const"
  input: "^mean_squared_error/assert_broadcastable/static_scalar_check_success"
  attr {
    key: "dtype"
    value {
      type: DT_INT32
    }
  }
  attr {
    key: "value"
    value {
      tensor {
        dtype: DT_INT32
        tensor_shape {
          dim {
            size: 4
          }
        }
        tensor_content: "\001\000\000\000d\000\000\000d\000\000\000\014\000\000\000"
      }
    }
  }
}
node {
  name: "mean_squared_error/num_present/broadcast_weights/assert_broadcastable/values/rank"
  op: "Const"
  input: "^mean_squared_error/assert_broadcastable/static_scalar_check_success"
  attr {
    key: "dtype"
    value {
      type: DT_INT32
    }
  }
  attr {
    key: "value"
    value {
      tensor {
        dtype: DT_INT32
        tensor_shape {
        }
        int_val: 4
      }
    }
  }
}
node {
  name: "mean_squared_error/num_present/broadcast_weights/assert_broadcastable/static_scalar_check_success"
  op: "NoOp"
  input: "^mean_squared_error/assert_broadcastable/static_scalar_check_success"
}
node {
  name: "mean_squared_error/num_present/broadcast_weights/ones_like/Shape"
  op: "Const"
  input: "^mean_squared_error/assert_broadcastable/static_scalar_check_success"
  input: "^mean_squared_error/num_present/broadcast_weights/assert_broadcastable/static_scalar_check_success"
  attr {
    key: "dtype"
    value {
      type: DT_INT32
    }
  }
  attr {
    key: "value"
    value {
      tensor {
        dtype: DT_INT32
        tensor_shape {
          dim {
            size: 4
          }
        }
        tensor_content: "\001\000\000\000d\000\000\000d\000\000\000\014\000\000\000"
      }
    }
  }
}
node {
  name: "mean_squared_error/num_present/broadcast_weights/ones_like/Const"
  op: "Const"
  input: "^mean_squared_error/assert_broadcastable/static_scalar_check_success"
  input: "^mean_squared_error/num_present/broadcast_weights/assert_broadcastable/static_scalar_check_success"
  attr {
    key: "dtype"
    value {
      type: DT_FLOAT
    }
  }
  attr {
    key: "value"
    value {
      tensor {
        dtype: DT_FLOAT
        tensor_shape {
        }
        float_val: 1.0
      }
    }
  }
}
node {
  name: "mean_squared_error/num_present/broadcast_weights/ones_like"
  op: "Fill"
  input: "mean_squared_error/num_present/broadcast_weights/ones_like/Shape"
  input: "mean_squared_error/num_present/broadcast_weights/ones_like/Const"
  attr {
    key: "T"
    value {
      type: DT_FLOAT
    }
  }
  attr {
    key: "index_type"
    value {
      type: DT_INT32
    }
  }
}
node {
  name: "mean_squared_error/num_present/broadcast_weights"
  op: "Mul"
  input: "mean_squared_error/num_present/Select"
  input: "mean_squared_error/num_present/broadcast_weights/ones_like"
  attr {
    key: "T"
    value {
      type: DT_FLOAT
    }
  }
}
node {
  name: "mean_squared_error/num_present/Const"
  op: "Const"
  input: "^mean_squared_error/assert_broadcastable/static_scalar_check_success"
  attr {
    key: "dtype"
    value {
      type: DT_INT32
    }
  }
  attr {
    key: "value"
    value {
      tensor {
        dtype: DT_INT32
        tensor_shape {
          dim {
            size: 4
          }
        }
        tensor_content: "\000\000\000\000\001\000\000\000\002\000\000\000\003\000\000\000"
      }
    }
  }
}
node {
  name: "mean_squared_error/num_present"
  op: "Sum"
  input: "mean_squared_error/num_present/broadcast_weights"
  input: "mean_squared_error/num_present/Const"
  attr {
    key: "T"
    value {
      type: DT_FLOAT
    }
  }
  attr {
    key: "Tidx"
    value {
      type: DT_INT32
    }
  }
  attr {
    key: "keep_dims"
    value {
      b: false
    }
  }
}
node {
  name: "mean_squared_error/Const_1"
  op: "Const"
  input: "^mean_squared_error/assert_broadcastable/static_scalar_check_success"
  attr {
    key: "dtype"
    value {
      type: DT_INT32
    }
  }
  attr {
    key: "value"
    value {
      tensor {
        dtype: DT_INT32
        tensor_shape {
          dim {
          }
        }
      }
    }
  }
}
node {
  name: "mean_squared_error/Sum_1"
  op: "Sum"
  input: "mean_squared_error/Sum"
  input: "mean_squared_error/Const_1"
  attr {
    key: "T"
    value {
      type: DT_FLOAT
    }
  }
  attr {
    key: "Tidx"
    value {
      type: DT_INT32
    }
  }
  attr {
    key: "keep_dims"
    value {
      b: false
    }
  }
}
node {
  name: "mean_squared_error/value"
  op: "DivNoNan"
  input: "mean_squared_error/Sum_1"
  input: "mean_squared_error/num_present"
  attr {
    key: "T"
    value {
      type: DT_FLOAT
    }
  }
}
node {
  name: "Const_1"
  op: "Const"
  attr {
    key: "dtype"
    value {
      type: DT_INT32
    }
  }
  attr {
    key: "value"
    value {
      tensor {
        dtype: DT_INT32
        tensor_shape {
          dim {
          }
        }
      }
    }
  }
}
node {
  name: "Mean"
  op: "Mean"
  input: "mean_squared_error/value"
  input: "Const_1"
  attr {
    key: "T"
    value {
      type: DT_FLOAT
    }
  }
  attr {
    key: "Tidx"
    value {
      type: DT_INT32
    }
  }
  attr {
    key: "keep_dims"
    value {
      b: false
    }
  }
}
node {
  name: "init"
  op: "NoOp"
  input: "^conv_lstm_cell_lite/bias/Assign"
  input: "^conv_lstm_cell_lite/kernel/Assign"
  input: "^rnn/conv_lstm_cell_lite/cell_bias/Assign"
  input: "^rnn/conv_lstm_cell_lite/cell_to_cell_w/Assign"
  input: "^rnn/conv_lstm_cell_lite/cell_to_forget_w/Assign"
  input: "^rnn/conv_lstm_cell_lite/cell_to_input_w/Assign"
  input: "^rnn/conv_lstm_cell_lite/cell_to_output_w/Assign"
  input: "^rnn/conv_lstm_cell_lite/forget_bias/Assign"
  input: "^rnn/conv_lstm_cell_lite/input_bias/Assign"
  input: "^rnn/conv_lstm_cell_lite/input_to_cell_w/Assign"
  input: "^rnn/conv_lstm_cell_lite/input_to_forget_w/Assign"
  input: "^rnn/conv_lstm_cell_lite/input_to_input_w/Assign"
  input: "^rnn/conv_lstm_cell_lite/input_to_output_w/Assign"
  input: "^rnn/conv_lstm_cell_lite/output_bias/Assign"
}
library {
  function {
    signature {
      name: "rnn_while_cond_7827"
      input_arg {
        name: "rnn_while_loop_counter"
        type: DT_INT32
      }
      input_arg {
        name: "rnn_strided_slice"
        type: DT_INT32
      }
      input_arg {
        name: "placeholder"
        type: DT_INT32
      }
      input_arg {
        name: "placeholder_1"
        type: DT_VARIANT
      }
      input_arg {
        name: "placeholder_2"
        type: DT_FLOAT
      }
      input_arg {
        name: "placeholder_3"
        type: DT_FLOAT
      }
      input_arg {
        name: "less_rnn_minimum"
        type: DT_INT32
      }
      input_arg {
        name: "rnn_tensorarrayunstack_tensorlistfromtensor"
        type: DT_VARIANT
      }
      input_arg {
        name: "rnn_conv_lstm_cell_lite_input_to_input_w_read_identity"
        type: DT_FLOAT
      }
      input_arg {
        name: "rnn_conv_lstm_cell_lite_input_to_forget_w_read_identity"
        type: DT_FLOAT
      }
      input_arg {
        name: "rnn_conv_lstm_cell_lite_input_to_cell_w_read_identity"
        type: DT_FLOAT
      }
      input_arg {
        name: "rnn_conv_lstm_cell_lite_input_to_output_w_read_identity"
        type: DT_FLOAT
      }
      input_arg {
        name: "rnn_conv_lstm_cell_lite_cell_to_input_w_read_identity"
        type: DT_FLOAT
      }
      input_arg {
        name: "rnn_conv_lstm_cell_lite_cell_to_forget_w_read_identity"
        type: DT_FLOAT
      }
      input_arg {
        name: "rnn_conv_lstm_cell_lite_cell_to_cell_w_read_identity"
        type: DT_FLOAT
      }
      input_arg {
        name: "rnn_conv_lstm_cell_lite_cell_to_output_w_read_identity"
        type: DT_FLOAT
      }
      input_arg {
        name: "rnn_conv_lstm_cell_lite_input_bias_read_identity"
        type: DT_FLOAT
      }
      input_arg {
        name: "rnn_conv_lstm_cell_lite_forget_bias_read_identity"
        type: DT_FLOAT
      }
      input_arg {
        name: "rnn_conv_lstm_cell_lite_cell_bias_read_identity"
        type: DT_FLOAT
      }
      input_arg {
        name: "rnn_conv_lstm_cell_lite_output_bias_read_identity"
        type: DT_FLOAT
      }
      input_arg {
        name: "conv_lstm_cell_lite_kernel"
        type: DT_RESOURCE
      }
      input_arg {
        name: "conv_lstm_cell_lite_bias"
        type: DT_RESOURCE
      }
      output_arg {
        name: "logicaland"
        type: DT_BOOL
      }
    }
    node_def {
      name: "Less"
      op: "Less"
      input: "placeholder"
      input: "less_rnn_minimum"
      attr {
        key: "T"
        value {
          type: DT_INT32
        }
      }
    }
    node_def {
      name: "Less_1"
      op: "Less"
      input: "rnn_while_loop_counter"
      input: "rnn_strided_slice"
      attr {
        key: "T"
        value {
          type: DT_INT32
        }
      }
    }
    node_def {
      name: "LogicalAnd"
      op: "LogicalAnd"
      input: "Less_1:z:0"
      input: "Less:z:0"
    }
    ret {
      key: "logicaland"
      value: "LogicalAnd:z:0"
    }
    arg_attr {
      value {
      }
    }
    arg_attr {
      key: 1
      value {
      }
    }
    arg_attr {
      key: 2
      value {
      }
    }
    arg_attr {
      key: 3
      value {
      }
    }
    arg_attr {
      key: 4
      value {
      }
    }
    arg_attr {
      key: 5
      value {
      }
    }
    arg_attr {
      key: 6
      value {
      }
    }
    arg_attr {
      key: 7
      value {
      }
    }
    arg_attr {
      key: 8
      value {
      }
    }
    arg_attr {
      key: 9
      value {
      }
    }
    arg_attr {
      key: 10
      value {
      }
    }
    arg_attr {
      key: 11
      value {
      }
    }
    arg_attr {
      key: 12
      value {
      }
    }
    arg_attr {
      key: 13
      value {
      }
    }
    arg_attr {
      key: 14
      value {
      }
    }
    arg_attr {
      key: 15
      value {
      }
    }
    arg_attr {
      key: 16
      value {
      }
    }
    arg_attr {
      key: 17
      value {
      }
    }
    arg_attr {
      key: 18
      value {
      }
    }
    arg_attr {
      key: 19
      value {
      }
    }
    arg_attr {
      key: 20
      value {
      }
    }
    arg_attr {
      key: 21
      value {
      }
    }
  }
  function {
    signature {
      name: "rnn_while_body_7828"
      input_arg {
        name: "rnn_while_loop_counter"
        type: DT_INT32
      }
      input_arg {
        name: "rnn_strided_slice_0"
        type: DT_INT32
      }
      input_arg {
        name: "placeholder"
        type: DT_INT32
      }
      input_arg {
        name: "placeholder_1"
        type: DT_VARIANT
      }
      input_arg {
        name: "placeholder_2"
        type: DT_FLOAT
      }
      input_arg {
        name: "placeholder_3"
        type: DT_FLOAT
      }
      input_arg {
        name: "rnn_minimum_0"
        type: DT_INT32
      }
      input_arg {
        name: "tensorarrayv2read_tensorlistgetitem_rnn_tensorarrayunstack_tensorlistfromtensor_0"
        type: DT_VARIANT
      }
      input_arg {
        name: "conv_lstm_cell_lite_inputhint_unidirectionalsequencelstm_1071b488780211eaabec901b0e08b606_1_none_input_to_input_w_rnn_conv_lstm_cell_lite_input_to_input_w_read_identity_0"
        type: DT_FLOAT
      }
      input_arg {
        name: "conv_lstm_cell_lite_inputhint_unidirectionalsequencelstm_1071b488780211eaabec901b0e08b606_2_none_input_to_forget_w_rnn_conv_lstm_cell_lite_input_to_forget_w_read_identity_0"
        type: DT_FLOAT
      }
      input_arg {
        name: "conv_lstm_cell_lite_inputhint_unidirectionalsequencelstm_1071b488780211eaabec901b0e08b606_3_none_input_to_cell_w_rnn_conv_lstm_cell_lite_input_to_cell_w_read_identity_0"
        type: DT_FLOAT
      }
      input_arg {
        name: "conv_lstm_cell_lite_inputhint_unidirectionalsequencelstm_1071b488780211eaabec901b0e08b606_4_none_input_to_output_w_rnn_conv_lstm_cell_lite_input_to_output_w_read_identity_0"
        type: DT_FLOAT
      }
      input_arg {
        name: "conv_lstm_cell_lite_inputhint_unidirectionalsequencelstm_1071b488780211eaabec901b0e08b606_5_none_cell_to_input_w_rnn_conv_lstm_cell_lite_cell_to_input_w_read_identity_0"
        type: DT_FLOAT
      }
      input_arg {
        name: "conv_lstm_cell_lite_inputhint_unidirectionalsequencelstm_1071b488780211eaabec901b0e08b606_6_none_cell_to_forget_w_rnn_conv_lstm_cell_lite_cell_to_forget_w_read_identity_0"
        type: DT_FLOAT
      }
      input_arg {
        name: "conv_lstm_cell_lite_inputhint_unidirectionalsequencelstm_1071b488780211eaabec901b0e08b606_7_none_cell_to_cell_w_rnn_conv_lstm_cell_lite_cell_to_cell_w_read_identity_0"
        type: DT_FLOAT
      }
      input_arg {
        name: "conv_lstm_cell_lite_inputhint_unidirectionalsequencelstm_1071b488780211eaabec901b0e08b606_8_none_cell_to_output_w_rnn_conv_lstm_cell_lite_cell_to_output_w_read_identity_0"
        type: DT_FLOAT
      }
      input_arg {
        name: "conv_lstm_cell_lite_inputhint_unidirectionalsequencelstm_1071b488780211eaabec901b0e08b606_12_none_input_bias_rnn_conv_lstm_cell_lite_input_bias_read_identity_0"
        type: DT_FLOAT
      }
      input_arg {
        name: "conv_lstm_cell_lite_inputhint_unidirectionalsequencelstm_1071b488780211eaabec901b0e08b606_13_none_forget_bias_rnn_conv_lstm_cell_lite_forget_bias_read_identity_0"
        type: DT_FLOAT
      }
      input_arg {
        name: "conv_lstm_cell_lite_inputhint_unidirectionalsequencelstm_1071b488780211eaabec901b0e08b606_14_none_cell_bias_rnn_conv_lstm_cell_lite_cell_bias_read_identity_0"
        type: DT_FLOAT
      }
      input_arg {
        name: "conv_lstm_cell_lite_inputhint_unidirectionalsequencelstm_1071b488780211eaabec901b0e08b606_15_none_output_bias_rnn_conv_lstm_cell_lite_output_bias_read_identity_0"
        type: DT_FLOAT
      }
      input_arg {
        name: "conv_lstm_cell_lite_convolution_readvariableop_conv_lstm_cell_lite_kernel_0"
        type: DT_RESOURCE
      }
      input_arg {
        name: "conv_lstm_cell_lite_add_readvariableop_conv_lstm_cell_lite_bias_0"
        type: DT_RESOURCE
      }
      output_arg {
        name: "add_1"
        type: DT_INT32
      }
      output_arg {
        name: "rnn_strided_slice"
        type: DT_INT32
      }
      output_arg {
        name: "add"
        type: DT_INT32
      }
      output_arg {
        name: "tensorarrayv2write_tensorlistsetitem"
        type: DT_VARIANT
      }
      output_arg {
        name: "conv_lstm_cell_lite_add_2"
        type: DT_FLOAT
      }
      output_arg {
        name: "conv_lstm_cell_lite_mul_2"
        type: DT_FLOAT
      }
      output_arg {
        name: "rnn_minimum"
        type: DT_INT32
      }
      output_arg {
        name: "tensorarrayv2read_tensorlistgetitem_rnn_tensorarrayunstack_tensorlistfromtensor"
        type: DT_VARIANT
      }
      output_arg {
        name: "conv_lstm_cell_lite_inputhint_unidirectionalsequencelstm_1071b488780211eaabec901b0e08b606_1_none_input_to_input_w_rnn_conv_lstm_cell_lite_input_to_input_w_read_identity"
        type: DT_FLOAT
      }
      output_arg {
        name: "conv_lstm_cell_lite_inputhint_unidirectionalsequencelstm_1071b488780211eaabec901b0e08b606_2_none_input_to_forget_w_rnn_conv_lstm_cell_lite_input_to_forget_w_read_identity"
        type: DT_FLOAT
      }
      output_arg {
        name: "conv_lstm_cell_lite_inputhint_unidirectionalsequencelstm_1071b488780211eaabec901b0e08b606_3_none_input_to_cell_w_rnn_conv_lstm_cell_lite_input_to_cell_w_read_identity"
        type: DT_FLOAT
      }
      output_arg {
        name: "conv_lstm_cell_lite_inputhint_unidirectionalsequencelstm_1071b488780211eaabec901b0e08b606_4_none_input_to_output_w_rnn_conv_lstm_cell_lite_input_to_output_w_read_identity"
        type: DT_FLOAT
      }
      output_arg {
        name: "conv_lstm_cell_lite_inputhint_unidirectionalsequencelstm_1071b488780211eaabec901b0e08b606_5_none_cell_to_input_w_rnn_conv_lstm_cell_lite_cell_to_input_w_read_identity"
        type: DT_FLOAT
      }
      output_arg {
        name: "conv_lstm_cell_lite_inputhint_unidirectionalsequencelstm_1071b488780211eaabec901b0e08b606_6_none_cell_to_forget_w_rnn_conv_lstm_cell_lite_cell_to_forget_w_read_identity"
        type: DT_FLOAT
      }
      output_arg {
        name: "conv_lstm_cell_lite_inputhint_unidirectionalsequencelstm_1071b488780211eaabec901b0e08b606_7_none_cell_to_cell_w_rnn_conv_lstm_cell_lite_cell_to_cell_w_read_identity"
        type: DT_FLOAT
      }
      output_arg {
        name: "conv_lstm_cell_lite_inputhint_unidirectionalsequencelstm_1071b488780211eaabec901b0e08b606_8_none_cell_to_output_w_rnn_conv_lstm_cell_lite_cell_to_output_w_read_identity"
        type: DT_FLOAT
      }
      output_arg {
        name: "conv_lstm_cell_lite_inputhint_unidirectionalsequencelstm_1071b488780211eaabec901b0e08b606_12_none_input_bias_rnn_conv_lstm_cell_lite_input_bias_read_identity"
        type: DT_FLOAT
      }
      output_arg {
        name: "conv_lstm_cell_lite_inputhint_unidirectionalsequencelstm_1071b488780211eaabec901b0e08b606_13_none_forget_bias_rnn_conv_lstm_cell_lite_forget_bias_read_identity"
        type: DT_FLOAT
      }
      output_arg {
        name: "conv_lstm_cell_lite_inputhint_unidirectionalsequencelstm_1071b488780211eaabec901b0e08b606_14_none_cell_bias_rnn_conv_lstm_cell_lite_cell_bias_read_identity"
        type: DT_FLOAT
      }
      output_arg {
        name: "conv_lstm_cell_lite_inputhint_unidirectionalsequencelstm_1071b488780211eaabec901b0e08b606_15_none_output_bias_rnn_conv_lstm_cell_lite_output_bias_read_identity"
        type: DT_FLOAT
      }
      output_arg {
        name: "conv_lstm_cell_lite_convolution_readvariableop_conv_lstm_cell_lite_kernel"
        type: DT_RESOURCE
      }
      output_arg {
        name: "conv_lstm_cell_lite_add_readvariableop_conv_lstm_cell_lite_bias"
        type: DT_RESOURCE
      }
      is_stateful: true
    }
    node_def {
      name: "TensorArrayV2Read/TensorListGetItem/element_shape"
      op: "Const"
      attr {
        key: "dtype"
        value {
          type: DT_INT32
        }
      }
      attr {
        key: "value"
        value {
          tensor {
            dtype: DT_INT32
            tensor_shape {
              dim {
                size: 2
              }
            }
            tensor_content: "\n\000\000\000\020\'\000\000"
          }
        }
      }
    }
    node_def {
      name: "TensorArrayV2Read/TensorListGetItem"
      op: "TensorListGetItem"
      input: "tensorarrayv2read_tensorlistgetitem_rnn_tensorarrayunstack_tensorlistfromtensor_0"
      input: "placeholder"
      input: "TensorArrayV2Read/TensorListGetItem/element_shape:output:0"
      attr {
        key: "element_dtype"
        value {
          type: DT_FLOAT
        }
      }
    }
    node_def {
      name: "conv_lstm_cell_lite/InputHint-UnidirectionalSequenceLstm-1071b488780211eaabec901b0e08b606-1-None-input_to_input_w"
      op: "Identity"
      input: "conv_lstm_cell_lite_inputhint_unidirectionalsequencelstm_1071b488780211eaabec901b0e08b606_1_none_input_to_input_w_rnn_conv_lstm_cell_lite_input_to_input_w_read_identity_0"
      attr {
        key: "T"
        value {
          type: DT_FLOAT
        }
      }
      attr {
        key: "_tflite_function_input_index"
        value {
          i: 1
        }
      }
      attr {
        key: "_tflite_function_name"
        value {
          s: "UnidirectionalSequenceLstm"
        }
      }
      attr {
        key: "_tflite_function_uuid"
        value {
          s: "1071b488780211eaabec901b0e08b606"
        }
      }
      attr {
        key: "_tflite_ophint_level"
        value {
          i: 1
        }
      }
    }
    node_def {
      name: "conv_lstm_cell_lite/InputHint-UnidirectionalSequenceLstm-1071b488780211eaabec901b0e08b606-2-None-input_to_forget_w"
      op: "Identity"
      input: "conv_lstm_cell_lite_inputhint_unidirectionalsequencelstm_1071b488780211eaabec901b0e08b606_2_none_input_to_forget_w_rnn_conv_lstm_cell_lite_input_to_forget_w_read_identity_0"
      attr {
        key: "T"
        value {
          type: DT_FLOAT
        }
      }
      attr {
        key: "_tflite_function_input_index"
        value {
          i: 2
        }
      }
      attr {
        key: "_tflite_function_name"
        value {
          s: "UnidirectionalSequenceLstm"
        }
      }
      attr {
        key: "_tflite_function_uuid"
        value {
          s: "1071b488780211eaabec901b0e08b606"
        }
      }
      attr {
        key: "_tflite_ophint_level"
        value {
          i: 1
        }
      }
    }
    node_def {
      name: "conv_lstm_cell_lite/InputHint-UnidirectionalSequenceLstm-1071b488780211eaabec901b0e08b606-3-None-input_to_cell_w"
      op: "Identity"
      input: "conv_lstm_cell_lite_inputhint_unidirectionalsequencelstm_1071b488780211eaabec901b0e08b606_3_none_input_to_cell_w_rnn_conv_lstm_cell_lite_input_to_cell_w_read_identity_0"
      attr {
        key: "T"
        value {
          type: DT_FLOAT
        }
      }
      attr {
        key: "_tflite_function_input_index"
        value {
          i: 3
        }
      }
      attr {
        key: "_tflite_function_name"
        value {
          s: "UnidirectionalSequenceLstm"
        }
      }
      attr {
        key: "_tflite_function_uuid"
        value {
          s: "1071b488780211eaabec901b0e08b606"
        }
      }
      attr {
        key: "_tflite_ophint_level"
        value {
          i: 1
        }
      }
    }
    node_def {
      name: "conv_lstm_cell_lite/InputHint-UnidirectionalSequenceLstm-1071b488780211eaabec901b0e08b606-4-None-input_to_output_w"
      op: "Identity"
      input: "conv_lstm_cell_lite_inputhint_unidirectionalsequencelstm_1071b488780211eaabec901b0e08b606_4_none_input_to_output_w_rnn_conv_lstm_cell_lite_input_to_output_w_read_identity_0"
      attr {
        key: "T"
        value {
          type: DT_FLOAT
        }
      }
      attr {
        key: "_tflite_function_input_index"
        value {
          i: 4
        }
      }
      attr {
        key: "_tflite_function_name"
        value {
          s: "UnidirectionalSequenceLstm"
        }
      }
      attr {
        key: "_tflite_function_uuid"
        value {
          s: "1071b488780211eaabec901b0e08b606"
        }
      }
      attr {
        key: "_tflite_ophint_level"
        value {
          i: 1
        }
      }
    }
    node_def {
      name: "conv_lstm_cell_lite/InputHint-UnidirectionalSequenceLstm-1071b488780211eaabec901b0e08b606-5-None-cell_to_input_w"
      op: "Identity"
      input: "conv_lstm_cell_lite_inputhint_unidirectionalsequencelstm_1071b488780211eaabec901b0e08b606_5_none_cell_to_input_w_rnn_conv_lstm_cell_lite_cell_to_input_w_read_identity_0"
      attr {
        key: "T"
        value {
          type: DT_FLOAT
        }
      }
      attr {
        key: "_tflite_function_input_index"
        value {
          i: 5
        }
      }
      attr {
        key: "_tflite_function_name"
        value {
          s: "UnidirectionalSequenceLstm"
        }
      }
      attr {
        key: "_tflite_function_uuid"
        value {
          s: "1071b488780211eaabec901b0e08b606"
        }
      }
      attr {
        key: "_tflite_ophint_level"
        value {
          i: 1
        }
      }
    }
    node_def {
      name: "conv_lstm_cell_lite/InputHint-UnidirectionalSequenceLstm-1071b488780211eaabec901b0e08b606-6-None-cell_to_forget_w"
      op: "Identity"
      input: "conv_lstm_cell_lite_inputhint_unidirectionalsequencelstm_1071b488780211eaabec901b0e08b606_6_none_cell_to_forget_w_rnn_conv_lstm_cell_lite_cell_to_forget_w_read_identity_0"
      attr {
        key: "T"
        value {
          type: DT_FLOAT
        }
      }
      attr {
        key: "_tflite_function_input_index"
        value {
          i: 6
        }
      }
      attr {
        key: "_tflite_function_name"
        value {
          s: "UnidirectionalSequenceLstm"
        }
      }
      attr {
        key: "_tflite_function_uuid"
        value {
          s: "1071b488780211eaabec901b0e08b606"
        }
      }
      attr {
        key: "_tflite_ophint_level"
        value {
          i: 1
        }
      }
    }
    node_def {
      name: "conv_lstm_cell_lite/InputHint-UnidirectionalSequenceLstm-1071b488780211eaabec901b0e08b606-7-None-cell_to_cell_w"
      op: "Identity"
      input: "conv_lstm_cell_lite_inputhint_unidirectionalsequencelstm_1071b488780211eaabec901b0e08b606_7_none_cell_to_cell_w_rnn_conv_lstm_cell_lite_cell_to_cell_w_read_identity_0"
      attr {
        key: "T"
        value {
          type: DT_FLOAT
        }
      }
      attr {
        key: "_tflite_function_input_index"
        value {
          i: 7
        }
      }
      attr {
        key: "_tflite_function_name"
        value {
          s: "UnidirectionalSequenceLstm"
        }
      }
      attr {
        key: "_tflite_function_uuid"
        value {
          s: "1071b488780211eaabec901b0e08b606"
        }
      }
      attr {
        key: "_tflite_ophint_level"
        value {
          i: 1
        }
      }
    }
    node_def {
      name: "conv_lstm_cell_lite/InputHint-UnidirectionalSequenceLstm-1071b488780211eaabec901b0e08b606-8-None-cell_to_output_w"
      op: "Identity"
      input: "conv_lstm_cell_lite_inputhint_unidirectionalsequencelstm_1071b488780211eaabec901b0e08b606_8_none_cell_to_output_w_rnn_conv_lstm_cell_lite_cell_to_output_w_read_identity_0"
      attr {
        key: "T"
        value {
          type: DT_FLOAT
        }
      }
      attr {
        key: "_tflite_function_input_index"
        value {
          i: 8
        }
      }
      attr {
        key: "_tflite_function_name"
        value {
          s: "UnidirectionalSequenceLstm"
        }
      }
      attr {
        key: "_tflite_function_uuid"
        value {
          s: "1071b488780211eaabec901b0e08b606"
        }
      }
      attr {
        key: "_tflite_ophint_level"
        value {
          i: 1
        }
      }
    }
    node_def {
      name: "conv_lstm_cell_lite/InputHint-UnidirectionalSequenceLstm-1071b488780211eaabec901b0e08b606-12-None-input_bias"
      op: "Identity"
      input: "conv_lstm_cell_lite_inputhint_unidirectionalsequencelstm_1071b488780211eaabec901b0e08b606_12_none_input_bias_rnn_conv_lstm_cell_lite_input_bias_read_identity_0"
      attr {
        key: "T"
        value {
          type: DT_FLOAT
        }
      }
      attr {
        key: "_tflite_function_input_index"
        value {
          i: 12
        }
      }
      attr {
        key: "_tflite_function_name"
        value {
          s: "UnidirectionalSequenceLstm"
        }
      }
      attr {
        key: "_tflite_function_uuid"
        value {
          s: "1071b488780211eaabec901b0e08b606"
        }
      }
      attr {
        key: "_tflite_ophint_level"
        value {
          i: 1
        }
      }
    }
    node_def {
      name: "conv_lstm_cell_lite/InputHint-UnidirectionalSequenceLstm-1071b488780211eaabec901b0e08b606-13-None-forget_bias"
      op: "Identity"
      input: "conv_lstm_cell_lite_inputhint_unidirectionalsequencelstm_1071b488780211eaabec901b0e08b606_13_none_forget_bias_rnn_conv_lstm_cell_lite_forget_bias_read_identity_0"
      attr {
        key: "T"
        value {
          type: DT_FLOAT
        }
      }
      attr {
        key: "_tflite_function_input_index"
        value {
          i: 13
        }
      }
      attr {
        key: "_tflite_function_name"
        value {
          s: "UnidirectionalSequenceLstm"
        }
      }
      attr {
        key: "_tflite_function_uuid"
        value {
          s: "1071b488780211eaabec901b0e08b606"
        }
      }
      attr {
        key: "_tflite_ophint_level"
        value {
          i: 1
        }
      }
    }
    node_def {
      name: "conv_lstm_cell_lite/InputHint-UnidirectionalSequenceLstm-1071b488780211eaabec901b0e08b606-14-None-cell_bias"
      op: "Identity"
      input: "conv_lstm_cell_lite_inputhint_unidirectionalsequencelstm_1071b488780211eaabec901b0e08b606_14_none_cell_bias_rnn_conv_lstm_cell_lite_cell_bias_read_identity_0"
      attr {
        key: "T"
        value {
          type: DT_FLOAT
        }
      }
      attr {
        key: "_tflite_function_input_index"
        value {
          i: 14
        }
      }
      attr {
        key: "_tflite_function_name"
        value {
          s: "UnidirectionalSequenceLstm"
        }
      }
      attr {
        key: "_tflite_function_uuid"
        value {
          s: "1071b488780211eaabec901b0e08b606"
        }
      }
      attr {
        key: "_tflite_ophint_level"
        value {
          i: 1
        }
      }
    }
    node_def {
      name: "conv_lstm_cell_lite/InputHint-UnidirectionalSequenceLstm-1071b488780211eaabec901b0e08b606-15-None-output_bias"
      op: "Identity"
      input: "conv_lstm_cell_lite_inputhint_unidirectionalsequencelstm_1071b488780211eaabec901b0e08b606_15_none_output_bias_rnn_conv_lstm_cell_lite_output_bias_read_identity_0"
      attr {
        key: "T"
        value {
          type: DT_FLOAT
        }
      }
      attr {
        key: "_tflite_function_input_index"
        value {
          i: 15
        }
      }
      attr {
        key: "_tflite_function_name"
        value {
          s: "UnidirectionalSequenceLstm"
        }
      }
      attr {
        key: "_tflite_function_uuid"
        value {
          s: "1071b488780211eaabec901b0e08b606"
        }
      }
      attr {
        key: "_tflite_ophint_level"
        value {
          i: 1
        }
      }
    }
    node_def {
      name: "conv_lstm_cell_lite/Reshape/shape"
      op: "Const"
      attr {
        key: "dtype"
        value {
          type: DT_INT32
        }
      }
      attr {
        key: "value"
        value {
          tensor {
            dtype: DT_INT32
            tensor_shape {
              dim {
                size: 3
              }
            }
            tensor_content: "\n\000\000\000d\000\000\000d\000\000\000"
          }
        }
      }
    }
    node_def {
      name: "conv_lstm_cell_lite/Reshape"
      op: "Reshape"
      input: "TensorArrayV2Read/TensorListGetItem:item:0"
      input: "conv_lstm_cell_lite/Reshape/shape:output:0"
      attr {
        key: "T"
        value {
          type: DT_FLOAT
        }
      }
      attr {
        key: "Tshape"
        value {
          type: DT_INT32
        }
      }
    }
    node_def {
      name: "conv_lstm_cell_lite/ExpandDims/dim"
      op: "Const"
      attr {
        key: "dtype"
        value {
          type: DT_INT32
        }
      }
      attr {
        key: "value"
        value {
          tensor {
            dtype: DT_INT32
            tensor_shape {
            }
            int_val: -1
          }
        }
      }
    }
    node_def {
      name: "conv_lstm_cell_lite/ExpandDims"
      op: "ExpandDims"
      input: "conv_lstm_cell_lite/Reshape:output:0"
      input: "conv_lstm_cell_lite/ExpandDims/dim:output:0"
      attr {
        key: "T"
        value {
          type: DT_FLOAT
        }
      }
      attr {
        key: "Tdim"
        value {
          type: DT_INT32
        }
      }
    }
    node_def {
      name: "conv_lstm_cell_lite/concat/axis"
      op: "Const"
      attr {
        key: "dtype"
        value {
          type: DT_INT32
        }
      }
      attr {
        key: "value"
        value {
          tensor {
            dtype: DT_INT32
            tensor_shape {
            }
            int_val: 3
          }
        }
      }
    }
    node_def {
      name: "conv_lstm_cell_lite/concat"
      op: "ConcatV2"
      input: "conv_lstm_cell_lite/ExpandDims:output:0"
      input: "placeholder_3"
      input: "conv_lstm_cell_lite/concat/axis:output:0"
      attr {
        key: "N"
        value {
          i: 2
        }
      }
      attr {
        key: "T"
        value {
          type: DT_FLOAT
        }
      }
      attr {
        key: "Tidx"
        value {
          type: DT_INT32
        }
      }
    }
    node_def {
      name: "conv_lstm_cell_lite/convolution/ReadVariableOp"
      op: "ReadVariableOp"
      input: "conv_lstm_cell_lite_convolution_readvariableop_conv_lstm_cell_lite_kernel_0"
      attr {
        key: "dtype"
        value {
          type: DT_FLOAT
        }
      }
    }
    node_def {
      name: "conv_lstm_cell_lite/convolution"
      op: "Conv2D"
      input: "conv_lstm_cell_lite/concat:output:0"
      input: "conv_lstm_cell_lite/convolution/ReadVariableOp:value:0"
      attr {
        key: "T"
        value {
          type: DT_FLOAT
        }
      }
      attr {
        key: "data_format"
        value {
          s: "NHWC"
        }
      }
      attr {
        key: "dilations"
        value {
          list {
            i: 1
            i: 1
            i: 1
            i: 1
          }
        }
      }
      attr {
        key: "explicit_paddings"
        value {
          list {
          }
        }
      }
      attr {
        key: "padding"
        value {
          s: "SAME"
        }
      }
      attr {
        key: "strides"
        value {
          list {
            i: 1
            i: 1
            i: 1
            i: 1
          }
        }
      }
      attr {
        key: "use_cudnn_on_gpu"
        value {
          b: true
        }
      }
    }
    node_def {
      name: "conv_lstm_cell_lite/add/ReadVariableOp"
      op: "ReadVariableOp"
      input: "conv_lstm_cell_lite_add_readvariableop_conv_lstm_cell_lite_bias_0"
      attr {
        key: "dtype"
        value {
          type: DT_FLOAT
        }
      }
    }
    node_def {
      name: "conv_lstm_cell_lite/add"
      op: "AddV2"
      input: "conv_lstm_cell_lite/convolution:output:0"
      input: "conv_lstm_cell_lite/add/ReadVariableOp:value:0"
      attr {
        key: "T"
        value {
          type: DT_FLOAT
        }
      }
    }
    node_def {
      name: "conv_lstm_cell_lite/Const"
      op: "Const"
      attr {
        key: "dtype"
        value {
          type: DT_INT32
        }
      }
      attr {
        key: "value"
        value {
          tensor {
            dtype: DT_INT32
            tensor_shape {
            }
            int_val: 4
          }
        }
      }
    }
    node_def {
      name: "conv_lstm_cell_lite/split/split_dim"
      op: "Const"
      attr {
        key: "dtype"
        value {
          type: DT_INT32
        }
      }
      attr {
        key: "value"
        value {
          tensor {
            dtype: DT_INT32
            tensor_shape {
            }
            int_val: 3
          }
        }
      }
    }
    node_def {
      name: "conv_lstm_cell_lite/split"
      op: "Split"
      input: "conv_lstm_cell_lite/split/split_dim:output:0"
      input: "conv_lstm_cell_lite/add:z:0"
      attr {
        key: "T"
        value {
          type: DT_FLOAT
        }
      }
      attr {
        key: "num_split"
        value {
          i: 4
        }
      }
    }
    node_def {
      name: "conv_lstm_cell_lite/add_1/y"
      op: "Const"
      attr {
        key: "dtype"
        value {
          type: DT_FLOAT
        }
      }
      attr {
        key: "value"
        value {
          tensor {
            dtype: DT_FLOAT
            tensor_shape {
            }
            float_val: 1.0
          }
        }
      }
    }
    node_def {
      name: "conv_lstm_cell_lite/add_1"
      op: "AddV2"
      input: "conv_lstm_cell_lite/split:output:2"
      input: "conv_lstm_cell_lite/add_1/y:output:0"
      attr {
        key: "T"
        value {
          type: DT_FLOAT
        }
      }
    }
    node_def {
      name: "conv_lstm_cell_lite/Sigmoid"
      op: "Sigmoid"
      input: "conv_lstm_cell_lite/add_1:z:0"
      attr {
        key: "T"
        value {
          type: DT_FLOAT
        }
      }
    }
    node_def {
      name: "conv_lstm_cell_lite/Sigmoid_1"
      op: "Sigmoid"
      input: "conv_lstm_cell_lite/split:output:1"
      attr {
        key: "T"
        value {
          type: DT_FLOAT
        }
      }
    }
    node_def {
      name: "conv_lstm_cell_lite/mul"
      op: "Mul"
      input: "placeholder_2"
      input: "conv_lstm_cell_lite/Sigmoid:y:0"
      attr {
        key: "T"
        value {
          type: DT_FLOAT
        }
      }
    }
    node_def {
      name: "conv_lstm_cell_lite/Tanh"
      op: "Tanh"
      input: "conv_lstm_cell_lite/split:output:0"
      attr {
        key: "T"
        value {
          type: DT_FLOAT
        }
      }
    }
    node_def {
      name: "conv_lstm_cell_lite/mul_1"
      op: "Mul"
      input: "conv_lstm_cell_lite/Sigmoid_1:y:0"
      input: "conv_lstm_cell_lite/Tanh:y:0"
      attr {
        key: "T"
        value {
          type: DT_FLOAT
        }
      }
    }
    node_def {
      name: "conv_lstm_cell_lite/add_2"
      op: "AddV2"
      input: "conv_lstm_cell_lite/mul:z:0"
      input: "conv_lstm_cell_lite/mul_1:z:0"
      attr {
        key: "T"
        value {
          type: DT_FLOAT
        }
      }
    }
    node_def {
      name: "conv_lstm_cell_lite/Sigmoid_2"
      op: "Sigmoid"
      input: "conv_lstm_cell_lite/split:output:3"
      attr {
        key: "T"
        value {
          type: DT_FLOAT
        }
      }
    }
    node_def {
      name: "conv_lstm_cell_lite/Tanh_1"
      op: "Tanh"
      input: "conv_lstm_cell_lite/add_2:z:0"
      attr {
        key: "T"
        value {
          type: DT_FLOAT
        }
      }
    }
    node_def {
      name: "conv_lstm_cell_lite/mul_2"
      op: "Mul"
      input: "conv_lstm_cell_lite/Sigmoid_2:y:0"
      input: "conv_lstm_cell_lite/Tanh_1:y:0"
      attr {
        key: "T"
        value {
          type: DT_FLOAT
        }
      }
    }
    node_def {
      name: "TensorArrayV2Write/TensorListSetItem"
      op: "TensorListSetItem"
      input: "placeholder_1"
      input: "placeholder"
      input: "conv_lstm_cell_lite/mul_2:z:0"
      attr {
        key: "element_dtype"
        value {
          type: DT_FLOAT
        }
      }
    }
    node_def {
      name: "add/y"
      op: "Const"
      attr {
        key: "dtype"
        value {
          type: DT_INT32
        }
      }
      attr {
        key: "value"
        value {
          tensor {
            dtype: DT_INT32
            tensor_shape {
            }
            int_val: 1
          }
        }
      }
    }
    node_def {
      name: "add_0"
      op: "AddV2"
      input: "placeholder"
      input: "add/y:output:0"
      attr {
        key: "T"
        value {
          type: DT_INT32
        }
      }
    }
    node_def {
      name: "add_1/y"
      op: "Const"
      attr {
        key: "dtype"
        value {
          type: DT_INT32
        }
      }
      attr {
        key: "value"
        value {
          tensor {
            dtype: DT_INT32
            tensor_shape {
            }
            int_val: 1
          }
        }
      }
    }
    node_def {
      name: "add_1_0"
      op: "AddV2"
      input: "rnn_while_loop_counter"
      input: "add_1/y:output:0"
      attr {
        key: "T"
        value {
          type: DT_INT32
        }
      }
    }
    ret {
      key: "add"
      value: "add_0:z:0"
    }
    ret {
      key: "add_1"
      value: "add_1_0:z:0"
    }
    ret {
      key: "conv_lstm_cell_lite_add_2"
      value: "conv_lstm_cell_lite/add_2:z:0"
    }
    ret {
      key: "conv_lstm_cell_lite_add_readvariableop_conv_lstm_cell_lite_bias"
      value: "conv_lstm_cell_lite_add_readvariableop_conv_lstm_cell_lite_bias_0"
    }
    ret {
      key: "conv_lstm_cell_lite_convolution_readvariableop_conv_lstm_cell_lite_kernel"
      value: "conv_lstm_cell_lite_convolution_readvariableop_conv_lstm_cell_lite_kernel_0"
    }
    ret {
      key: "conv_lstm_cell_lite_inputhint_unidirectionalsequencelstm_1071b488780211eaabec901b0e08b606_12_none_input_bias_rnn_conv_lstm_cell_lite_input_bias_read_identity"
      value: "conv_lstm_cell_lite_inputhint_unidirectionalsequencelstm_1071b488780211eaabec901b0e08b606_12_none_input_bias_rnn_conv_lstm_cell_lite_input_bias_read_identity_0"
    }
    ret {
      key: "conv_lstm_cell_lite_inputhint_unidirectionalsequencelstm_1071b488780211eaabec901b0e08b606_13_none_forget_bias_rnn_conv_lstm_cell_lite_forget_bias_read_identity"
      value: "conv_lstm_cell_lite_inputhint_unidirectionalsequencelstm_1071b488780211eaabec901b0e08b606_13_none_forget_bias_rnn_conv_lstm_cell_lite_forget_bias_read_identity_0"
    }
    ret {
      key: "conv_lstm_cell_lite_inputhint_unidirectionalsequencelstm_1071b488780211eaabec901b0e08b606_14_none_cell_bias_rnn_conv_lstm_cell_lite_cell_bias_read_identity"
      value: "conv_lstm_cell_lite_inputhint_unidirectionalsequencelstm_1071b488780211eaabec901b0e08b606_14_none_cell_bias_rnn_conv_lstm_cell_lite_cell_bias_read_identity_0"
    }
    ret {
      key: "conv_lstm_cell_lite_inputhint_unidirectionalsequencelstm_1071b488780211eaabec901b0e08b606_15_none_output_bias_rnn_conv_lstm_cell_lite_output_bias_read_identity"
      value: "conv_lstm_cell_lite_inputhint_unidirectionalsequencelstm_1071b488780211eaabec901b0e08b606_15_none_output_bias_rnn_conv_lstm_cell_lite_output_bias_read_identity_0"
    }
    ret {
      key: "conv_lstm_cell_lite_inputhint_unidirectionalsequencelstm_1071b488780211eaabec901b0e08b606_1_none_input_to_input_w_rnn_conv_lstm_cell_lite_input_to_input_w_read_identity"
      value: "conv_lstm_cell_lite_inputhint_unidirectionalsequencelstm_1071b488780211eaabec901b0e08b606_1_none_input_to_input_w_rnn_conv_lstm_cell_lite_input_to_input_w_read_identity_0"
    }
    ret {
      key: "conv_lstm_cell_lite_inputhint_unidirectionalsequencelstm_1071b488780211eaabec901b0e08b606_2_none_input_to_forget_w_rnn_conv_lstm_cell_lite_input_to_forget_w_read_identity"
      value: "conv_lstm_cell_lite_inputhint_unidirectionalsequencelstm_1071b488780211eaabec901b0e08b606_2_none_input_to_forget_w_rnn_conv_lstm_cell_lite_input_to_forget_w_read_identity_0"
    }
    ret {
      key: "conv_lstm_cell_lite_inputhint_unidirectionalsequencelstm_1071b488780211eaabec901b0e08b606_3_none_input_to_cell_w_rnn_conv_lstm_cell_lite_input_to_cell_w_read_identity"
      value: "conv_lstm_cell_lite_inputhint_unidirectionalsequencelstm_1071b488780211eaabec901b0e08b606_3_none_input_to_cell_w_rnn_conv_lstm_cell_lite_input_to_cell_w_read_identity_0"
    }
    ret {
      key: "conv_lstm_cell_lite_inputhint_unidirectionalsequencelstm_1071b488780211eaabec901b0e08b606_4_none_input_to_output_w_rnn_conv_lstm_cell_lite_input_to_output_w_read_identity"
      value: "conv_lstm_cell_lite_inputhint_unidirectionalsequencelstm_1071b488780211eaabec901b0e08b606_4_none_input_to_output_w_rnn_conv_lstm_cell_lite_input_to_output_w_read_identity_0"
    }
    ret {
      key: "conv_lstm_cell_lite_inputhint_unidirectionalsequencelstm_1071b488780211eaabec901b0e08b606_5_none_cell_to_input_w_rnn_conv_lstm_cell_lite_cell_to_input_w_read_identity"
      value: "conv_lstm_cell_lite_inputhint_unidirectionalsequencelstm_1071b488780211eaabec901b0e08b606_5_none_cell_to_input_w_rnn_conv_lstm_cell_lite_cell_to_input_w_read_identity_0"
    }
    ret {
      key: "conv_lstm_cell_lite_inputhint_unidirectionalsequencelstm_1071b488780211eaabec901b0e08b606_6_none_cell_to_forget_w_rnn_conv_lstm_cell_lite_cell_to_forget_w_read_identity"
      value: "conv_lstm_cell_lite_inputhint_unidirectionalsequencelstm_1071b488780211eaabec901b0e08b606_6_none_cell_to_forget_w_rnn_conv_lstm_cell_lite_cell_to_forget_w_read_identity_0"
    }
    ret {
      key: "conv_lstm_cell_lite_inputhint_unidirectionalsequencelstm_1071b488780211eaabec901b0e08b606_7_none_cell_to_cell_w_rnn_conv_lstm_cell_lite_cell_to_cell_w_read_identity"
      value: "conv_lstm_cell_lite_inputhint_unidirectionalsequencelstm_1071b488780211eaabec901b0e08b606_7_none_cell_to_cell_w_rnn_conv_lstm_cell_lite_cell_to_cell_w_read_identity_0"
    }
    ret {
      key: "conv_lstm_cell_lite_inputhint_unidirectionalsequencelstm_1071b488780211eaabec901b0e08b606_8_none_cell_to_output_w_rnn_conv_lstm_cell_lite_cell_to_output_w_read_identity"
      value: "conv_lstm_cell_lite_inputhint_unidirectionalsequencelstm_1071b488780211eaabec901b0e08b606_8_none_cell_to_output_w_rnn_conv_lstm_cell_lite_cell_to_output_w_read_identity_0"
    }
    ret {
      key: "conv_lstm_cell_lite_mul_2"
      value: "conv_lstm_cell_lite/mul_2:z:0"
    }
    ret {
      key: "rnn_minimum"
      value: "rnn_minimum_0"
    }
    ret {
      key: "rnn_strided_slice"
      value: "rnn_strided_slice_0"
    }
    ret {
      key: "tensorarrayv2read_tensorlistgetitem_rnn_tensorarrayunstack_tensorlistfromtensor"
      value: "tensorarrayv2read_tensorlistgetitem_rnn_tensorarrayunstack_tensorlistfromtensor_0"
    }
    ret {
      key: "tensorarrayv2write_tensorlistsetitem"
      value: "TensorArrayV2Write/TensorListSetItem:output_handle:0"
    }
    arg_attr {
      value {
      }
    }
    arg_attr {
      key: 1
      value {
      }
    }
    arg_attr {
      key: 2
      value {
      }
    }
    arg_attr {
      key: 3
      value {
      }
    }
    arg_attr {
      key: 4
      value {
      }
    }
    arg_attr {
      key: 5
      value {
      }
    }
    arg_attr {
      key: 6
      value {
      }
    }
    arg_attr {
      key: 7
      value {
      }
    }
    arg_attr {
      key: 8
      value {
      }
    }
    arg_attr {
      key: 9
      value {
      }
    }
    arg_attr {
      key: 10
      value {
      }
    }
    arg_attr {
      key: 11
      value {
      }
    }
    arg_attr {
      key: 12
      value {
      }
    }
    arg_attr {
      key: 13
      value {
      }
    }
    arg_attr {
      key: 14
      value {
      }
    }
    arg_attr {
      key: 15
      value {
      }
    }
    arg_attr {
      key: 16
      value {
      }
    }
    arg_attr {
      key: 17
      value {
      }
    }
    arg_attr {
      key: 18
      value {
      }
    }
    arg_attr {
      key: 19
      value {
      }
    }
    arg_attr {
      key: 20
      value {
      }
    }
    arg_attr {
      key: 21
      value {
      }
    }
  }
}
versions {
  producer: 134
  min_consumer: 12
}
